<?xml version="1.0" ?>
<net name="horizontal-text-detection-0001" version="10">
	<layers>
		<layer id="0" name="image" type="Parameter" version="opset1">
			<data element_type="f16" shape="1,3,704,704"/>
			<output>
				<port id="0" precision="FP16">
					<dim>1</dim>
					<dim>3</dim>
					<dim>704</dim>
					<dim>704</dim>
				</port>
			</output>
		</layer>
		<layer id="1" name="77387742_const" type="Const" version="opset1">
			<data element_type="f16" offset="0" shape="" size="2"/>
			<output>
				<port id="1" precision="FP16"/>
			</output>
		</layer>
		<layer id="2" name="77397743_const" type="Const" version="opset1">
			<data element_type="f16" offset="2" shape="" size="2"/>
			<output>
				<port id="1" precision="FP16"/>
			</output>
		</layer>
		<layer id="3" name="77407744_const" type="Const" version="opset1">
			<data element_type="f16" offset="0" shape="" size="2"/>
			<output>
				<port id="1" precision="FP16"/>
			</output>
		</layer>
		<layer id="4" name="77417745_const" type="Const" version="opset1">
			<data element_type="f16" offset="2" shape="" size="2"/>
			<output>
				<port id="1" precision="FP16"/>
			</output>
		</layer>
		<layer id="5" name="364/fq_input_0" type="FakeQuantize" version="opset1">
			<data levels="256"/>
			<input>
				<port id="0">
					<dim>1</dim>
					<dim>3</dim>
					<dim>704</dim>
					<dim>704</dim>
				</port>
				<port id="1"/>
				<port id="2"/>
				<port id="3"/>
				<port id="4"/>
			</input>
			<output>
				<port id="5" precision="FP16">
					<dim>1</dim>
					<dim>3</dim>
					<dim>704</dim>
					<dim>704</dim>
				</port>
			</output>
		</layer>
		<layer id="6" name="364/fq_weights_1/Convert_to_float/Cast_019780_const" type="Const" version="opset1">
			<data element_type="u8" offset="4" shape="32,3,3,3" size="864"/>
			<output>
				<port id="1" precision="U8">
					<dim>32</dim>
					<dim>3</dim>
					<dim>3</dim>
					<dim>3</dim>
				</port>
			</output>
		</layer>
		<layer id="7" name="364/fq_weights_1/Convert_to_float" type="Convert" version="opset1">
			<data destination_type="f16"/>
			<input>
				<port id="0">
					<dim>32</dim>
					<dim>3</dim>
					<dim>3</dim>
					<dim>3</dim>
				</port>
			</input>
			<output>
				<port id="1" precision="FP16">
					<dim>32</dim>
					<dim>3</dim>
					<dim>3</dim>
					<dim>3</dim>
				</port>
			</output>
		</layer>
		<layer id="8" name="364/fq_weights_1/Copy/out_low17240_const" type="Const" version="opset1">
			<data element_type="f16" offset="0" shape="1" size="2"/>
			<output>
				<port id="1" precision="FP16">
					<dim>1</dim>
				</port>
			</output>
		</layer>
		<layer id="9" name="364/fq_weights_1/Copy/out_high17241_const" type="Const" version="opset1">
			<data element_type="f16" offset="868" shape="1" size="2"/>
			<output>
				<port id="1" precision="FP16">
					<dim>1</dim>
				</port>
			</output>
		</layer>
		<layer id="10" name="77507754_const" type="Const" version="opset1">
			<data element_type="f16" offset="870" shape="32,1,1,1" size="64"/>
			<output>
				<port id="1" precision="FP16">
					<dim>32</dim>
					<dim>1</dim>
					<dim>1</dim>
					<dim>1</dim>
				</port>
			</output>
		</layer>
		<layer id="11" name="77517755_const" type="Const" version="opset1">
			<data element_type="f16" offset="934" shape="32,1,1,1" size="64"/>
			<output>
				<port id="1" precision="FP16">
					<dim>32</dim>
					<dim>1</dim>
					<dim>1</dim>
					<dim>1</dim>
				</port>
			</output>
		</layer>
		<layer id="12" name="364/fq_weights_1" type="FakeQuantize" version="opset1">
			<data levels="255"/>
			<input>
				<port id="0">
					<dim>32</dim>
					<dim>3</dim>
					<dim>3</dim>
					<dim>3</dim>
				</port>
				<port id="1">
					<dim>1</dim>
				</port>
				<port id="2">
					<dim>1</dim>
				</port>
				<port id="3">
					<dim>32</dim>
					<dim>1</dim>
					<dim>1</dim>
					<dim>1</dim>
				</port>
				<port id="4">
					<dim>32</dim>
					<dim>1</dim>
					<dim>1</dim>
					<dim>1</dim>
				</port>
			</input>
			<output>
				<port id="5" precision="FP16">
					<dim>32</dim>
					<dim>3</dim>
					<dim>3</dim>
					<dim>3</dim>
				</port>
			</output>
		</layer>
		<layer id="13" name="364" type="Convolution" version="opset1">
			<data dilations="1,1" output_padding="0,0" pads_begin="1,1" pads_end="1,1" strides="2,2"/>
			<input>
				<port id="0">
					<dim>1</dim>
					<dim>3</dim>
					<dim>704</dim>
					<dim>704</dim>
				</port>
				<port id="1">
					<dim>32</dim>
					<dim>3</dim>
					<dim>3</dim>
					<dim>3</dim>
				</port>
			</input>
			<output>
				<port id="2" precision="FP16">
					<dim>1</dim>
					<dim>32</dim>
					<dim>352</dim>
					<dim>352</dim>
				</port>
			</output>
		</layer>
		<layer id="14" name="data_add_2982031045/EltwiseUnsqueeze31625_const1736_const" type="Const" version="opset1">
			<data element_type="f16" offset="998" shape="1,32,1,1" size="64"/>
			<output>
				<port id="1" precision="FP16">
					<dim>1</dim>
					<dim>32</dim>
					<dim>1</dim>
					<dim>1</dim>
				</port>
			</output>
		</layer>
		<layer id="15" name="365/variance/Fused_Add_" type="Add" version="opset1">
			<input>
				<port id="0">
					<dim>1</dim>
					<dim>32</dim>
					<dim>352</dim>
					<dim>352</dim>
				</port>
				<port id="1">
					<dim>1</dim>
					<dim>32</dim>
					<dim>1</dim>
					<dim>1</dim>
				</port>
			</input>
			<output>
				<port id="2" precision="FP16">
					<dim>1</dim>
					<dim>32</dim>
					<dim>352</dim>
					<dim>352</dim>
				</port>
			</output>
		</layer>
		<layer id="16" name="366" type="Clamp" version="opset1">
			<data max="6.0" min="0.0"/>
			<input>
				<port id="0">
					<dim>1</dim>
					<dim>32</dim>
					<dim>352</dim>
					<dim>352</dim>
				</port>
			</input>
			<output>
				<port id="1" precision="FP16">
					<dim>1</dim>
					<dim>32</dim>
					<dim>352</dim>
					<dim>352</dim>
				</port>
			</output>
		</layer>
		<layer id="17" name="71887192_const" type="Const" version="opset1">
			<data element_type="f16" offset="0" shape="" size="2"/>
			<output>
				<port id="1" precision="FP16"/>
			</output>
		</layer>
		<layer id="18" name="71897193_const" type="Const" version="opset1">
			<data element_type="f16" offset="1062" shape="" size="2"/>
			<output>
				<port id="1" precision="FP16"/>
			</output>
		</layer>
		<layer id="19" name="71907194_const" type="Const" version="opset1">
			<data element_type="f16" offset="0" shape="" size="2"/>
			<output>
				<port id="1" precision="FP16"/>
			</output>
		</layer>
		<layer id="20" name="71917195_const" type="Const" version="opset1">
			<data element_type="f16" offset="1062" shape="" size="2"/>
			<output>
				<port id="1" precision="FP16"/>
			</output>
		</layer>
		<layer id="21" name="367/fq_input_0" type="FakeQuantize" version="opset1">
			<data levels="256"/>
			<input>
				<port id="0">
					<dim>1</dim>
					<dim>32</dim>
					<dim>352</dim>
					<dim>352</dim>
				</port>
				<port id="1"/>
				<port id="2"/>
				<port id="3"/>
				<port id="4"/>
			</input>
			<output>
				<port id="5" precision="FP16">
					<dim>1</dim>
					<dim>32</dim>
					<dim>352</dim>
					<dim>352</dim>
				</port>
			</output>
		</layer>
		<layer id="22" name="367/fq_weights_1/Convert_to_float/Cast_019490_const" type="Const" version="opset1">
			<data element_type="u8" offset="1064" shape="32,32,1,1" size="1024"/>
			<output>
				<port id="1" precision="U8">
					<dim>32</dim>
					<dim>32</dim>
					<dim>1</dim>
					<dim>1</dim>
				</port>
			</output>
		</layer>
		<layer id="23" name="367/fq_weights_1/Convert_to_float" type="Convert" version="opset1">
			<data destination_type="f16"/>
			<input>
				<port id="0">
					<dim>32</dim>
					<dim>32</dim>
					<dim>1</dim>
					<dim>1</dim>
				</port>
			</input>
			<output>
				<port id="1" precision="FP16">
					<dim>32</dim>
					<dim>32</dim>
					<dim>1</dim>
					<dim>1</dim>
				</port>
			</output>
		</layer>
		<layer id="24" name="367/fq_weights_1/Copy/out_low17232_const" type="Const" version="opset1">
			<data element_type="f16" offset="0" shape="1" size="2"/>
			<output>
				<port id="1" precision="FP16">
					<dim>1</dim>
				</port>
			</output>
		</layer>
		<layer id="25" name="367/fq_weights_1/Copy/out_high17233_const" type="Const" version="opset1">
			<data element_type="f16" offset="868" shape="1" size="2"/>
			<output>
				<port id="1" precision="FP16">
					<dim>1</dim>
				</port>
			</output>
		</layer>
		<layer id="26" name="72007204_const" type="Const" version="opset1">
			<data element_type="f16" offset="2088" shape="32,1,1,1" size="64"/>
			<output>
				<port id="1" precision="FP16">
					<dim>32</dim>
					<dim>1</dim>
					<dim>1</dim>
					<dim>1</dim>
				</port>
			</output>
		</layer>
		<layer id="27" name="72017205_const" type="Const" version="opset1">
			<data element_type="f16" offset="2152" shape="32,1,1,1" size="64"/>
			<output>
				<port id="1" precision="FP16">
					<dim>32</dim>
					<dim>1</dim>
					<dim>1</dim>
					<dim>1</dim>
				</port>
			</output>
		</layer>
		<layer id="28" name="367/fq_weights_1" type="FakeQuantize" version="opset1">
			<data levels="255"/>
			<input>
				<port id="0">
					<dim>32</dim>
					<dim>32</dim>
					<dim>1</dim>
					<dim>1</dim>
				</port>
				<port id="1">
					<dim>1</dim>
				</port>
				<port id="2">
					<dim>1</dim>
				</port>
				<port id="3">
					<dim>32</dim>
					<dim>1</dim>
					<dim>1</dim>
					<dim>1</dim>
				</port>
				<port id="4">
					<dim>32</dim>
					<dim>1</dim>
					<dim>1</dim>
					<dim>1</dim>
				</port>
			</input>
			<output>
				<port id="5" precision="FP16">
					<dim>32</dim>
					<dim>32</dim>
					<dim>1</dim>
					<dim>1</dim>
				</port>
			</output>
		</layer>
		<layer id="29" name="367" type="Convolution" version="opset1">
			<data dilations="1,1" output_padding="0,0" pads_begin="0,0" pads_end="0,0" strides="1,1"/>
			<input>
				<port id="0">
					<dim>1</dim>
					<dim>32</dim>
					<dim>352</dim>
					<dim>352</dim>
				</port>
				<port id="1">
					<dim>32</dim>
					<dim>32</dim>
					<dim>1</dim>
					<dim>1</dim>
				</port>
			</input>
			<output>
				<port id="2" precision="FP16">
					<dim>1</dim>
					<dim>32</dim>
					<dim>352</dim>
					<dim>352</dim>
				</port>
			</output>
		</layer>
		<layer id="30" name="data_add_298232982831047/EltwiseUnsqueeze31633_const1741_const" type="Const" version="opset1">
			<data element_type="f16" offset="2216" shape="1,32,1,1" size="64"/>
			<output>
				<port id="1" precision="FP16">
					<dim>1</dim>
					<dim>32</dim>
					<dim>1</dim>
					<dim>1</dim>
				</port>
			</output>
		</layer>
		<layer id="31" name="368/variance/Fused_Add_" type="Add" version="opset1">
			<input>
				<port id="0">
					<dim>1</dim>
					<dim>32</dim>
					<dim>352</dim>
					<dim>352</dim>
				</port>
				<port id="1">
					<dim>1</dim>
					<dim>32</dim>
					<dim>1</dim>
					<dim>1</dim>
				</port>
			</input>
			<output>
				<port id="2" precision="FP16">
					<dim>1</dim>
					<dim>32</dim>
					<dim>352</dim>
					<dim>352</dim>
				</port>
			</output>
		</layer>
		<layer id="32" name="369" type="Clamp" version="opset1">
			<data max="6.0" min="0.0"/>
			<input>
				<port id="0">
					<dim>1</dim>
					<dim>32</dim>
					<dim>352</dim>
					<dim>352</dim>
				</port>
			</input>
			<output>
				<port id="1" precision="FP16">
					<dim>1</dim>
					<dim>32</dim>
					<dim>352</dim>
					<dim>352</dim>
				</port>
			</output>
		</layer>
		<layer id="33" name="72687272_const" type="Const" version="opset1">
			<data element_type="f16" offset="2280" shape="1,32,1,1" size="64"/>
			<output>
				<port id="1" precision="FP16">
					<dim>1</dim>
					<dim>32</dim>
					<dim>1</dim>
					<dim>1</dim>
				</port>
			</output>
		</layer>
		<layer id="34" name="72697273_const" type="Const" version="opset1">
			<data element_type="f16" offset="2344" shape="1,32,1,1" size="64"/>
			<output>
				<port id="1" precision="FP16">
					<dim>1</dim>
					<dim>32</dim>
					<dim>1</dim>
					<dim>1</dim>
				</port>
			</output>
		</layer>
		<layer id="35" name="72707274_const" type="Const" version="opset1">
			<data element_type="f16" offset="2280" shape="1,32,1,1" size="64"/>
			<output>
				<port id="1" precision="FP16">
					<dim>1</dim>
					<dim>32</dim>
					<dim>1</dim>
					<dim>1</dim>
				</port>
			</output>
		</layer>
		<layer id="36" name="72717275_const" type="Const" version="opset1">
			<data element_type="f16" offset="2344" shape="1,32,1,1" size="64"/>
			<output>
				<port id="1" precision="FP16">
					<dim>1</dim>
					<dim>32</dim>
					<dim>1</dim>
					<dim>1</dim>
				</port>
			</output>
		</layer>
		<layer id="37" name="370/fq_input_0" type="FakeQuantize" version="opset1">
			<data levels="256"/>
			<input>
				<port id="0">
					<dim>1</dim>
					<dim>32</dim>
					<dim>352</dim>
					<dim>352</dim>
				</port>
				<port id="1">
					<dim>1</dim>
					<dim>32</dim>
					<dim>1</dim>
					<dim>1</dim>
				</port>
				<port id="2">
					<dim>1</dim>
					<dim>32</dim>
					<dim>1</dim>
					<dim>1</dim>
				</port>
				<port id="3">
					<dim>1</dim>
					<dim>32</dim>
					<dim>1</dim>
					<dim>1</dim>
				</port>
				<port id="4">
					<dim>1</dim>
					<dim>32</dim>
					<dim>1</dim>
					<dim>1</dim>
				</port>
			</input>
			<output>
				<port id="5" precision="FP16">
					<dim>1</dim>
					<dim>32</dim>
					<dim>352</dim>
					<dim>352</dim>
				</port>
			</output>
		</layer>
		<layer id="38" name="370/fq_weights_1/Convert_to_float/Cast_019582_const" type="Const" version="opset1">
			<data element_type="u8" offset="2408" shape="32,1,3,3" size="288"/>
			<output>
				<port id="1" precision="U8">
					<dim>32</dim>
					<dim>1</dim>
					<dim>3</dim>
					<dim>3</dim>
				</port>
			</output>
		</layer>
		<layer id="39" name="370/fq_weights_1/Convert_to_float" type="Convert" version="opset1">
			<data destination_type="f16"/>
			<input>
				<port id="0">
					<dim>32</dim>
					<dim>1</dim>
					<dim>3</dim>
					<dim>3</dim>
				</port>
			</input>
			<output>
				<port id="1" precision="FP16">
					<dim>32</dim>
					<dim>1</dim>
					<dim>3</dim>
					<dim>3</dim>
				</port>
			</output>
		</layer>
		<layer id="40" name="370/fq_weights_1/Copy/out_low17024_const" type="Const" version="opset1">
			<data element_type="f16" offset="0" shape="1" size="2"/>
			<output>
				<port id="1" precision="FP16">
					<dim>1</dim>
				</port>
			</output>
		</layer>
		<layer id="41" name="370/fq_weights_1/Copy/out_high17025_const" type="Const" version="opset1">
			<data element_type="f16" offset="868" shape="1" size="2"/>
			<output>
				<port id="1" precision="FP16">
					<dim>1</dim>
				</port>
			</output>
		</layer>
		<layer id="42" name="72807284_const" type="Const" version="opset1">
			<data element_type="f16" offset="2696" shape="32,1,1,1" size="64"/>
			<output>
				<port id="1" precision="FP16">
					<dim>32</dim>
					<dim>1</dim>
					<dim>1</dim>
					<dim>1</dim>
				</port>
			</output>
		</layer>
		<layer id="43" name="72817285_const" type="Const" version="opset1">
			<data element_type="f16" offset="2760" shape="32,1,1,1" size="64"/>
			<output>
				<port id="1" precision="FP16">
					<dim>32</dim>
					<dim>1</dim>
					<dim>1</dim>
					<dim>1</dim>
				</port>
			</output>
		</layer>
		<layer id="44" name="370/fq_weights_1" type="FakeQuantize" version="opset1">
			<data levels="255"/>
			<input>
				<port id="0">
					<dim>32</dim>
					<dim>1</dim>
					<dim>3</dim>
					<dim>3</dim>
				</port>
				<port id="1">
					<dim>1</dim>
				</port>
				<port id="2">
					<dim>1</dim>
				</port>
				<port id="3">
					<dim>32</dim>
					<dim>1</dim>
					<dim>1</dim>
					<dim>1</dim>
				</port>
				<port id="4">
					<dim>32</dim>
					<dim>1</dim>
					<dim>1</dim>
					<dim>1</dim>
				</port>
			</input>
			<output>
				<port id="5" precision="FP16">
					<dim>32</dim>
					<dim>1</dim>
					<dim>3</dim>
					<dim>3</dim>
				</port>
			</output>
		</layer>
		<layer id="45" name="21831/value21833_const" type="Const" version="opset1">
			<data element_type="i64" offset="2824" shape="5" size="40"/>
			<output>
				<port id="1" precision="I64">
					<dim>5</dim>
				</port>
			</output>
		</layer>
		<layer id="46" name="21831" type="Reshape" version="opset1">
			<data special_zero="True"/>
			<input>
				<port id="0">
					<dim>32</dim>
					<dim>1</dim>
					<dim>3</dim>
					<dim>3</dim>
				</port>
				<port id="1">
					<dim>5</dim>
				</port>
			</input>
			<output>
				<port id="2" precision="FP16">
					<dim>32</dim>
					<dim>1</dim>
					<dim>1</dim>
					<dim>3</dim>
					<dim>3</dim>
				</port>
			</output>
		</layer>
		<layer id="47" name="370" type="GroupConvolution" version="opset1">
			<data dilations="1,1" output_padding="0,0" pads_begin="1,1" pads_end="1,1" strides="1,1"/>
			<input>
				<port id="0">
					<dim>1</dim>
					<dim>32</dim>
					<dim>352</dim>
					<dim>352</dim>
				</port>
				<port id="1">
					<dim>32</dim>
					<dim>1</dim>
					<dim>1</dim>
					<dim>3</dim>
					<dim>3</dim>
				</port>
			</input>
			<output>
				<port id="2" precision="FP16">
					<dim>1</dim>
					<dim>32</dim>
					<dim>352</dim>
					<dim>352</dim>
				</port>
			</output>
		</layer>
		<layer id="48" name="data_add_298312983631049/EltwiseUnsqueeze31641_const1746_const" type="Const" version="opset1">
			<data element_type="f16" offset="2864" shape="1,32,1,1" size="64"/>
			<output>
				<port id="1" precision="FP16">
					<dim>1</dim>
					<dim>32</dim>
					<dim>1</dim>
					<dim>1</dim>
				</port>
			</output>
		</layer>
		<layer id="49" name="371/variance/Fused_Add_" type="Add" version="opset1">
			<input>
				<port id="0">
					<dim>1</dim>
					<dim>32</dim>
					<dim>352</dim>
					<dim>352</dim>
				</port>
				<port id="1">
					<dim>1</dim>
					<dim>32</dim>
					<dim>1</dim>
					<dim>1</dim>
				</port>
			</input>
			<output>
				<port id="2" precision="FP16">
					<dim>1</dim>
					<dim>32</dim>
					<dim>352</dim>
					<dim>352</dim>
				</port>
			</output>
		</layer>
		<layer id="50" name="372" type="Clamp" version="opset1">
			<data max="6.0" min="0.0"/>
			<input>
				<port id="0">
					<dim>1</dim>
					<dim>32</dim>
					<dim>352</dim>
					<dim>352</dim>
				</port>
			</input>
			<output>
				<port id="1" precision="FP16">
					<dim>1</dim>
					<dim>32</dim>
					<dim>352</dim>
					<dim>352</dim>
				</port>
			</output>
		</layer>
		<layer id="51" name="60486052_const" type="Const" version="opset1">
			<data element_type="f16" offset="0" shape="" size="2"/>
			<output>
				<port id="1" precision="FP16"/>
			</output>
		</layer>
		<layer id="52" name="60496053_const" type="Const" version="opset1">
			<data element_type="f16" offset="2928" shape="" size="2"/>
			<output>
				<port id="1" precision="FP16"/>
			</output>
		</layer>
		<layer id="53" name="60506054_const" type="Const" version="opset1">
			<data element_type="f16" offset="0" shape="" size="2"/>
			<output>
				<port id="1" precision="FP16"/>
			</output>
		</layer>
		<layer id="54" name="60516055_const" type="Const" version="opset1">
			<data element_type="f16" offset="2928" shape="" size="2"/>
			<output>
				<port id="1" precision="FP16"/>
			</output>
		</layer>
		<layer id="55" name="373/fq_input_0" type="FakeQuantize" version="opset1">
			<data levels="256"/>
			<input>
				<port id="0">
					<dim>1</dim>
					<dim>32</dim>
					<dim>352</dim>
					<dim>352</dim>
				</port>
				<port id="1"/>
				<port id="2"/>
				<port id="3"/>
				<port id="4"/>
			</input>
			<output>
				<port id="5" precision="FP16">
					<dim>1</dim>
					<dim>32</dim>
					<dim>352</dim>
					<dim>352</dim>
				</port>
			</output>
		</layer>
		<layer id="56" name="373/fq_weights_1/Convert_to_float/Cast_019454_const" type="Const" version="opset1">
			<data element_type="u8" offset="2930" shape="16,32,1,1" size="512"/>
			<output>
				<port id="1" precision="U8">
					<dim>16</dim>
					<dim>32</dim>
					<dim>1</dim>
					<dim>1</dim>
				</port>
			</output>
		</layer>
		<layer id="57" name="373/fq_weights_1/Convert_to_float" type="Convert" version="opset1">
			<data destination_type="f16"/>
			<input>
				<port id="0">
					<dim>16</dim>
					<dim>32</dim>
					<dim>1</dim>
					<dim>1</dim>
				</port>
			</input>
			<output>
				<port id="1" precision="FP16">
					<dim>16</dim>
					<dim>32</dim>
					<dim>1</dim>
					<dim>1</dim>
				</port>
			</output>
		</layer>
		<layer id="58" name="373/fq_weights_1/Copy/out_low16872_const" type="Const" version="opset1">
			<data element_type="f16" offset="0" shape="1" size="2"/>
			<output>
				<port id="1" precision="FP16">
					<dim>1</dim>
				</port>
			</output>
		</layer>
		<layer id="59" name="373/fq_weights_1/Copy/out_high16873_const" type="Const" version="opset1">
			<data element_type="f16" offset="868" shape="1" size="2"/>
			<output>
				<port id="1" precision="FP16">
					<dim>1</dim>
				</port>
			</output>
		</layer>
		<layer id="60" name="60606064_const" type="Const" version="opset1">
			<data element_type="f16" offset="3442" shape="16,1,1,1" size="32"/>
			<output>
				<port id="1" precision="FP16">
					<dim>16</dim>
					<dim>1</dim>
					<dim>1</dim>
					<dim>1</dim>
				</port>
			</output>
		</layer>
		<layer id="61" name="60616065_const" type="Const" version="opset1">
			<data element_type="f16" offset="3474" shape="16,1,1,1" size="32"/>
			<output>
				<port id="1" precision="FP16">
					<dim>16</dim>
					<dim>1</dim>
					<dim>1</dim>
					<dim>1</dim>
				</port>
			</output>
		</layer>
		<layer id="62" name="373/fq_weights_1" type="FakeQuantize" version="opset1">
			<data levels="255"/>
			<input>
				<port id="0">
					<dim>16</dim>
					<dim>32</dim>
					<dim>1</dim>
					<dim>1</dim>
				</port>
				<port id="1">
					<dim>1</dim>
				</port>
				<port id="2">
					<dim>1</dim>
				</port>
				<port id="3">
					<dim>16</dim>
					<dim>1</dim>
					<dim>1</dim>
					<dim>1</dim>
				</port>
				<port id="4">
					<dim>16</dim>
					<dim>1</dim>
					<dim>1</dim>
					<dim>1</dim>
				</port>
			</input>
			<output>
				<port id="5" precision="FP16">
					<dim>16</dim>
					<dim>32</dim>
					<dim>1</dim>
					<dim>1</dim>
				</port>
			</output>
		</layer>
		<layer id="63" name="373" type="Convolution" version="opset1">
			<data dilations="1,1" output_padding="0,0" pads_begin="0,0" pads_end="0,0" strides="1,1"/>
			<input>
				<port id="0">
					<dim>1</dim>
					<dim>32</dim>
					<dim>352</dim>
					<dim>352</dim>
				</port>
				<port id="1">
					<dim>16</dim>
					<dim>32</dim>
					<dim>1</dim>
					<dim>1</dim>
				</port>
			</input>
			<output>
				<port id="2" precision="FP16">
					<dim>1</dim>
					<dim>16</dim>
					<dim>352</dim>
					<dim>352</dim>
				</port>
			</output>
		</layer>
		<layer id="64" name="data_add_298392984431051/EltwiseUnsqueeze31649_const1751_const" type="Const" version="opset1">
			<data element_type="f16" offset="3506" shape="1,16,1,1" size="32"/>
			<output>
				<port id="1" precision="FP16">
					<dim>1</dim>
					<dim>16</dim>
					<dim>1</dim>
					<dim>1</dim>
				</port>
			</output>
		</layer>
		<layer id="65" name="374/variance/Fused_Add_" type="Add" version="opset1">
			<input>
				<port id="0">
					<dim>1</dim>
					<dim>16</dim>
					<dim>352</dim>
					<dim>352</dim>
				</port>
				<port id="1">
					<dim>1</dim>
					<dim>16</dim>
					<dim>1</dim>
					<dim>1</dim>
				</port>
			</input>
			<output>
				<port id="2" precision="FP16">
					<dim>1</dim>
					<dim>16</dim>
					<dim>352</dim>
					<dim>352</dim>
				</port>
			</output>
		</layer>
		<layer id="66" name="75487552_const" type="Const" version="opset1">
			<data element_type="f16" offset="3538" shape="" size="2"/>
			<output>
				<port id="1" precision="FP16"/>
			</output>
		</layer>
		<layer id="67" name="75497553_const" type="Const" version="opset1">
			<data element_type="f16" offset="3540" shape="" size="2"/>
			<output>
				<port id="1" precision="FP16"/>
			</output>
		</layer>
		<layer id="68" name="75507554_const" type="Const" version="opset1">
			<data element_type="f16" offset="3538" shape="" size="2"/>
			<output>
				<port id="1" precision="FP16"/>
			</output>
		</layer>
		<layer id="69" name="75517555_const" type="Const" version="opset1">
			<data element_type="f16" offset="3540" shape="" size="2"/>
			<output>
				<port id="1" precision="FP16"/>
			</output>
		</layer>
		<layer id="70" name="375/fq_input_0" type="FakeQuantize" version="opset1">
			<data levels="256"/>
			<input>
				<port id="0">
					<dim>1</dim>
					<dim>16</dim>
					<dim>352</dim>
					<dim>352</dim>
				</port>
				<port id="1"/>
				<port id="2"/>
				<port id="3"/>
				<port id="4"/>
			</input>
			<output>
				<port id="5" precision="FP16">
					<dim>1</dim>
					<dim>16</dim>
					<dim>352</dim>
					<dim>352</dim>
				</port>
			</output>
		</layer>
		<layer id="71" name="375/fq_weights_1/Convert_to_float/Cast_019590_const" type="Const" version="opset1">
			<data element_type="u8" offset="3542" shape="96,16,1,1" size="1536"/>
			<output>
				<port id="1" precision="U8">
					<dim>96</dim>
					<dim>16</dim>
					<dim>1</dim>
					<dim>1</dim>
				</port>
			</output>
		</layer>
		<layer id="72" name="375/fq_weights_1/Convert_to_float" type="Convert" version="opset1">
			<data destination_type="f16"/>
			<input>
				<port id="0">
					<dim>96</dim>
					<dim>16</dim>
					<dim>1</dim>
					<dim>1</dim>
				</port>
			</input>
			<output>
				<port id="1" precision="FP16">
					<dim>96</dim>
					<dim>16</dim>
					<dim>1</dim>
					<dim>1</dim>
				</port>
			</output>
		</layer>
		<layer id="73" name="375/fq_weights_1/Copy/out_low16808_const" type="Const" version="opset1">
			<data element_type="f16" offset="0" shape="1" size="2"/>
			<output>
				<port id="1" precision="FP16">
					<dim>1</dim>
				</port>
			</output>
		</layer>
		<layer id="74" name="375/fq_weights_1/Copy/out_high16809_const" type="Const" version="opset1">
			<data element_type="f16" offset="868" shape="1" size="2"/>
			<output>
				<port id="1" precision="FP16">
					<dim>1</dim>
				</port>
			</output>
		</layer>
		<layer id="75" name="75607564_const" type="Const" version="opset1">
			<data element_type="f16" offset="5078" shape="96,1,1,1" size="192"/>
			<output>
				<port id="1" precision="FP16">
					<dim>96</dim>
					<dim>1</dim>
					<dim>1</dim>
					<dim>1</dim>
				</port>
			</output>
		</layer>
		<layer id="76" name="75617565_const" type="Const" version="opset1">
			<data element_type="f16" offset="5270" shape="96,1,1,1" size="192"/>
			<output>
				<port id="1" precision="FP16">
					<dim>96</dim>
					<dim>1</dim>
					<dim>1</dim>
					<dim>1</dim>
				</port>
			</output>
		</layer>
		<layer id="77" name="375/fq_weights_1" type="FakeQuantize" version="opset1">
			<data levels="255"/>
			<input>
				<port id="0">
					<dim>96</dim>
					<dim>16</dim>
					<dim>1</dim>
					<dim>1</dim>
				</port>
				<port id="1">
					<dim>1</dim>
				</port>
				<port id="2">
					<dim>1</dim>
				</port>
				<port id="3">
					<dim>96</dim>
					<dim>1</dim>
					<dim>1</dim>
					<dim>1</dim>
				</port>
				<port id="4">
					<dim>96</dim>
					<dim>1</dim>
					<dim>1</dim>
					<dim>1</dim>
				</port>
			</input>
			<output>
				<port id="5" precision="FP16">
					<dim>96</dim>
					<dim>16</dim>
					<dim>1</dim>
					<dim>1</dim>
				</port>
			</output>
		</layer>
		<layer id="78" name="375" type="Convolution" version="opset1">
			<data dilations="1,1" output_padding="0,0" pads_begin="0,0" pads_end="0,0" strides="1,1"/>
			<input>
				<port id="0">
					<dim>1</dim>
					<dim>16</dim>
					<dim>352</dim>
					<dim>352</dim>
				</port>
				<port id="1">
					<dim>96</dim>
					<dim>16</dim>
					<dim>1</dim>
					<dim>1</dim>
				</port>
			</input>
			<output>
				<port id="2" precision="FP16">
					<dim>1</dim>
					<dim>96</dim>
					<dim>352</dim>
					<dim>352</dim>
				</port>
			</output>
		</layer>
		<layer id="79" name="data_add_298472985231053/EltwiseUnsqueeze31657_const1755_const" type="Const" version="opset1">
			<data element_type="f16" offset="5462" shape="1,96,1,1" size="192"/>
			<output>
				<port id="1" precision="FP16">
					<dim>1</dim>
					<dim>96</dim>
					<dim>1</dim>
					<dim>1</dim>
				</port>
			</output>
		</layer>
		<layer id="80" name="376/variance/Fused_Add_" type="Add" version="opset1">
			<input>
				<port id="0">
					<dim>1</dim>
					<dim>96</dim>
					<dim>352</dim>
					<dim>352</dim>
				</port>
				<port id="1">
					<dim>1</dim>
					<dim>96</dim>
					<dim>1</dim>
					<dim>1</dim>
				</port>
			</input>
			<output>
				<port id="2" precision="FP16">
					<dim>1</dim>
					<dim>96</dim>
					<dim>352</dim>
					<dim>352</dim>
				</port>
			</output>
		</layer>
		<layer id="81" name="377" type="Clamp" version="opset1">
			<data max="6.0" min="0.0"/>
			<input>
				<port id="0">
					<dim>1</dim>
					<dim>96</dim>
					<dim>352</dim>
					<dim>352</dim>
				</port>
			</input>
			<output>
				<port id="1" precision="FP16">
					<dim>1</dim>
					<dim>96</dim>
					<dim>352</dim>
					<dim>352</dim>
				</port>
			</output>
		</layer>
		<layer id="82" name="76687672_const" type="Const" version="opset1">
			<data element_type="f16" offset="5654" shape="1,96,1,1" size="192"/>
			<output>
				<port id="1" precision="FP16">
					<dim>1</dim>
					<dim>96</dim>
					<dim>1</dim>
					<dim>1</dim>
				</port>
			</output>
		</layer>
		<layer id="83" name="76697673_const" type="Const" version="opset1">
			<data element_type="f16" offset="5846" shape="1,96,1,1" size="192"/>
			<output>
				<port id="1" precision="FP16">
					<dim>1</dim>
					<dim>96</dim>
					<dim>1</dim>
					<dim>1</dim>
				</port>
			</output>
		</layer>
		<layer id="84" name="76707674_const" type="Const" version="opset1">
			<data element_type="f16" offset="5654" shape="1,96,1,1" size="192"/>
			<output>
				<port id="1" precision="FP16">
					<dim>1</dim>
					<dim>96</dim>
					<dim>1</dim>
					<dim>1</dim>
				</port>
			</output>
		</layer>
		<layer id="85" name="76717675_const" type="Const" version="opset1">
			<data element_type="f16" offset="5846" shape="1,96,1,1" size="192"/>
			<output>
				<port id="1" precision="FP16">
					<dim>1</dim>
					<dim>96</dim>
					<dim>1</dim>
					<dim>1</dim>
				</port>
			</output>
		</layer>
		<layer id="86" name="378/fq_input_0" type="FakeQuantize" version="opset1">
			<data levels="256"/>
			<input>
				<port id="0">
					<dim>1</dim>
					<dim>96</dim>
					<dim>352</dim>
					<dim>352</dim>
				</port>
				<port id="1">
					<dim>1</dim>
					<dim>96</dim>
					<dim>1</dim>
					<dim>1</dim>
				</port>
				<port id="2">
					<dim>1</dim>
					<dim>96</dim>
					<dim>1</dim>
					<dim>1</dim>
				</port>
				<port id="3">
					<dim>1</dim>
					<dim>96</dim>
					<dim>1</dim>
					<dim>1</dim>
				</port>
				<port id="4">
					<dim>1</dim>
					<dim>96</dim>
					<dim>1</dim>
					<dim>1</dim>
				</port>
			</input>
			<output>
				<port id="5" precision="FP16">
					<dim>1</dim>
					<dim>96</dim>
					<dim>352</dim>
					<dim>352</dim>
				</port>
			</output>
		</layer>
		<layer id="87" name="378/fq_weights_1/Convert_to_float/Cast_019234_const" type="Const" version="opset1">
			<data element_type="u8" offset="6038" shape="96,1,3,3" size="864"/>
			<output>
				<port id="1" precision="U8">
					<dim>96</dim>
					<dim>1</dim>
					<dim>3</dim>
					<dim>3</dim>
				</port>
			</output>
		</layer>
		<layer id="88" name="378/fq_weights_1/Convert_to_float" type="Convert" version="opset1">
			<data destination_type="f16"/>
			<input>
				<port id="0">
					<dim>96</dim>
					<dim>1</dim>
					<dim>3</dim>
					<dim>3</dim>
				</port>
			</input>
			<output>
				<port id="1" precision="FP16">
					<dim>96</dim>
					<dim>1</dim>
					<dim>3</dim>
					<dim>3</dim>
				</port>
			</output>
		</layer>
		<layer id="89" name="378/fq_weights_1/Copy/out_low16448_const" type="Const" version="opset1">
			<data element_type="f16" offset="0" shape="1" size="2"/>
			<output>
				<port id="1" precision="FP16">
					<dim>1</dim>
				</port>
			</output>
		</layer>
		<layer id="90" name="378/fq_weights_1/Copy/out_high16449_const" type="Const" version="opset1">
			<data element_type="f16" offset="868" shape="1" size="2"/>
			<output>
				<port id="1" precision="FP16">
					<dim>1</dim>
				</port>
			</output>
		</layer>
		<layer id="91" name="76807684_const" type="Const" version="opset1">
			<data element_type="f16" offset="6902" shape="96,1,1,1" size="192"/>
			<output>
				<port id="1" precision="FP16">
					<dim>96</dim>
					<dim>1</dim>
					<dim>1</dim>
					<dim>1</dim>
				</port>
			</output>
		</layer>
		<layer id="92" name="76817685_const" type="Const" version="opset1">
			<data element_type="f16" offset="7094" shape="96,1,1,1" size="192"/>
			<output>
				<port id="1" precision="FP16">
					<dim>96</dim>
					<dim>1</dim>
					<dim>1</dim>
					<dim>1</dim>
				</port>
			</output>
		</layer>
		<layer id="93" name="378/fq_weights_1" type="FakeQuantize" version="opset1">
			<data levels="255"/>
			<input>
				<port id="0">
					<dim>96</dim>
					<dim>1</dim>
					<dim>3</dim>
					<dim>3</dim>
				</port>
				<port id="1">
					<dim>1</dim>
				</port>
				<port id="2">
					<dim>1</dim>
				</port>
				<port id="3">
					<dim>96</dim>
					<dim>1</dim>
					<dim>1</dim>
					<dim>1</dim>
				</port>
				<port id="4">
					<dim>96</dim>
					<dim>1</dim>
					<dim>1</dim>
					<dim>1</dim>
				</port>
			</input>
			<output>
				<port id="5" precision="FP16">
					<dim>96</dim>
					<dim>1</dim>
					<dim>3</dim>
					<dim>3</dim>
				</port>
			</output>
		</layer>
		<layer id="94" name="21843/value21845_const" type="Const" version="opset1">
			<data element_type="i64" offset="7286" shape="5" size="40"/>
			<output>
				<port id="1" precision="I64">
					<dim>5</dim>
				</port>
			</output>
		</layer>
		<layer id="95" name="21843" type="Reshape" version="opset1">
			<data special_zero="True"/>
			<input>
				<port id="0">
					<dim>96</dim>
					<dim>1</dim>
					<dim>3</dim>
					<dim>3</dim>
				</port>
				<port id="1">
					<dim>5</dim>
				</port>
			</input>
			<output>
				<port id="2" precision="FP16">
					<dim>96</dim>
					<dim>1</dim>
					<dim>1</dim>
					<dim>3</dim>
					<dim>3</dim>
				</port>
			</output>
		</layer>
		<layer id="96" name="378" type="GroupConvolution" version="opset1">
			<data dilations="1,1" output_padding="0,0" pads_begin="1,1" pads_end="1,1" strides="2,2"/>
			<input>
				<port id="0">
					<dim>1</dim>
					<dim>96</dim>
					<dim>352</dim>
					<dim>352</dim>
				</port>
				<port id="1">
					<dim>96</dim>
					<dim>1</dim>
					<dim>1</dim>
					<dim>3</dim>
					<dim>3</dim>
				</port>
			</input>
			<output>
				<port id="2" precision="FP16">
					<dim>1</dim>
					<dim>96</dim>
					<dim>176</dim>
					<dim>176</dim>
				</port>
			</output>
		</layer>
		<layer id="97" name="data_add_298552986031055/EltwiseUnsqueeze31665_const1760_const" type="Const" version="opset1">
			<data element_type="f16" offset="7326" shape="1,96,1,1" size="192"/>
			<output>
				<port id="1" precision="FP16">
					<dim>1</dim>
					<dim>96</dim>
					<dim>1</dim>
					<dim>1</dim>
				</port>
			</output>
		</layer>
		<layer id="98" name="379/variance/Fused_Add_" type="Add" version="opset1">
			<input>
				<port id="0">
					<dim>1</dim>
					<dim>96</dim>
					<dim>176</dim>
					<dim>176</dim>
				</port>
				<port id="1">
					<dim>1</dim>
					<dim>96</dim>
					<dim>1</dim>
					<dim>1</dim>
				</port>
			</input>
			<output>
				<port id="2" precision="FP16">
					<dim>1</dim>
					<dim>96</dim>
					<dim>176</dim>
					<dim>176</dim>
				</port>
			</output>
		</layer>
		<layer id="99" name="380" type="Clamp" version="opset1">
			<data max="6.0" min="0.0"/>
			<input>
				<port id="0">
					<dim>1</dim>
					<dim>96</dim>
					<dim>176</dim>
					<dim>176</dim>
				</port>
			</input>
			<output>
				<port id="1" precision="FP16">
					<dim>1</dim>
					<dim>96</dim>
					<dim>176</dim>
					<dim>176</dim>
				</port>
			</output>
		</layer>
		<layer id="100" name="58785882_const" type="Const" version="opset1">
			<data element_type="f16" offset="0" shape="" size="2"/>
			<output>
				<port id="1" precision="FP16"/>
			</output>
		</layer>
		<layer id="101" name="58795883_const" type="Const" version="opset1">
			<data element_type="f16" offset="7518" shape="" size="2"/>
			<output>
				<port id="1" precision="FP16"/>
			</output>
		</layer>
		<layer id="102" name="58805884_const" type="Const" version="opset1">
			<data element_type="f16" offset="0" shape="" size="2"/>
			<output>
				<port id="1" precision="FP16"/>
			</output>
		</layer>
		<layer id="103" name="58815885_const" type="Const" version="opset1">
			<data element_type="f16" offset="7518" shape="" size="2"/>
			<output>
				<port id="1" precision="FP16"/>
			</output>
		</layer>
		<layer id="104" name="381/fq_input_0" type="FakeQuantize" version="opset1">
			<data levels="256"/>
			<input>
				<port id="0">
					<dim>1</dim>
					<dim>96</dim>
					<dim>176</dim>
					<dim>176</dim>
				</port>
				<port id="1"/>
				<port id="2"/>
				<port id="3"/>
				<port id="4"/>
			</input>
			<output>
				<port id="5" precision="FP16">
					<dim>1</dim>
					<dim>96</dim>
					<dim>176</dim>
					<dim>176</dim>
				</port>
			</output>
		</layer>
		<layer id="105" name="381/fq_weights_1/Convert_to_float/Cast_019450_const" type="Const" version="opset1">
			<data element_type="u8" offset="7520" shape="24,96,1,1" size="2304"/>
			<output>
				<port id="1" precision="U8">
					<dim>24</dim>
					<dim>96</dim>
					<dim>1</dim>
					<dim>1</dim>
				</port>
			</output>
		</layer>
		<layer id="106" name="381/fq_weights_1/Convert_to_float" type="Convert" version="opset1">
			<data destination_type="f16"/>
			<input>
				<port id="0">
					<dim>24</dim>
					<dim>96</dim>
					<dim>1</dim>
					<dim>1</dim>
				</port>
			</input>
			<output>
				<port id="1" precision="FP16">
					<dim>24</dim>
					<dim>96</dim>
					<dim>1</dim>
					<dim>1</dim>
				</port>
			</output>
		</layer>
		<layer id="107" name="381/fq_weights_1/Copy/out_low16400_const" type="Const" version="opset1">
			<data element_type="f16" offset="0" shape="1" size="2"/>
			<output>
				<port id="1" precision="FP16">
					<dim>1</dim>
				</port>
			</output>
		</layer>
		<layer id="108" name="381/fq_weights_1/Copy/out_high16401_const" type="Const" version="opset1">
			<data element_type="f16" offset="868" shape="1" size="2"/>
			<output>
				<port id="1" precision="FP16">
					<dim>1</dim>
				</port>
			</output>
		</layer>
		<layer id="109" name="58905894_const" type="Const" version="opset1">
			<data element_type="f16" offset="9824" shape="24,1,1,1" size="48"/>
			<output>
				<port id="1" precision="FP16">
					<dim>24</dim>
					<dim>1</dim>
					<dim>1</dim>
					<dim>1</dim>
				</port>
			</output>
		</layer>
		<layer id="110" name="58915895_const" type="Const" version="opset1">
			<data element_type="f16" offset="9872" shape="24,1,1,1" size="48"/>
			<output>
				<port id="1" precision="FP16">
					<dim>24</dim>
					<dim>1</dim>
					<dim>1</dim>
					<dim>1</dim>
				</port>
			</output>
		</layer>
		<layer id="111" name="381/fq_weights_1" type="FakeQuantize" version="opset1">
			<data levels="255"/>
			<input>
				<port id="0">
					<dim>24</dim>
					<dim>96</dim>
					<dim>1</dim>
					<dim>1</dim>
				</port>
				<port id="1">
					<dim>1</dim>
				</port>
				<port id="2">
					<dim>1</dim>
				</port>
				<port id="3">
					<dim>24</dim>
					<dim>1</dim>
					<dim>1</dim>
					<dim>1</dim>
				</port>
				<port id="4">
					<dim>24</dim>
					<dim>1</dim>
					<dim>1</dim>
					<dim>1</dim>
				</port>
			</input>
			<output>
				<port id="5" precision="FP16">
					<dim>24</dim>
					<dim>96</dim>
					<dim>1</dim>
					<dim>1</dim>
				</port>
			</output>
		</layer>
		<layer id="112" name="381" type="Convolution" version="opset1">
			<data dilations="1,1" output_padding="0,0" pads_begin="0,0" pads_end="0,0" strides="1,1"/>
			<input>
				<port id="0">
					<dim>1</dim>
					<dim>96</dim>
					<dim>176</dim>
					<dim>176</dim>
				</port>
				<port id="1">
					<dim>24</dim>
					<dim>96</dim>
					<dim>1</dim>
					<dim>1</dim>
				</port>
			</input>
			<output>
				<port id="2" precision="FP16">
					<dim>1</dim>
					<dim>24</dim>
					<dim>176</dim>
					<dim>176</dim>
				</port>
			</output>
		</layer>
		<layer id="113" name="data_add_298632986831057/EltwiseUnsqueeze31673_const1765_const" type="Const" version="opset1">
			<data element_type="f16" offset="9920" shape="1,24,1,1" size="48"/>
			<output>
				<port id="1" precision="FP16">
					<dim>1</dim>
					<dim>24</dim>
					<dim>1</dim>
					<dim>1</dim>
				</port>
			</output>
		</layer>
		<layer id="114" name="382/variance/Fused_Add_" type="Add" version="opset1">
			<input>
				<port id="0">
					<dim>1</dim>
					<dim>24</dim>
					<dim>176</dim>
					<dim>176</dim>
				</port>
				<port id="1">
					<dim>1</dim>
					<dim>24</dim>
					<dim>1</dim>
					<dim>1</dim>
				</port>
			</input>
			<output>
				<port id="2" precision="FP16">
					<dim>1</dim>
					<dim>24</dim>
					<dim>176</dim>
					<dim>176</dim>
				</port>
			</output>
		</layer>
		<layer id="115" name="73087312_const" type="Const" version="opset1">
			<data element_type="f16" offset="9968" shape="" size="2"/>
			<output>
				<port id="1" precision="FP16"/>
			</output>
		</layer>
		<layer id="116" name="73097313_const" type="Const" version="opset1">
			<data element_type="f16" offset="9970" shape="" size="2"/>
			<output>
				<port id="1" precision="FP16"/>
			</output>
		</layer>
		<layer id="117" name="73107314_const" type="Const" version="opset1">
			<data element_type="f16" offset="9968" shape="" size="2"/>
			<output>
				<port id="1" precision="FP16"/>
			</output>
		</layer>
		<layer id="118" name="73117315_const" type="Const" version="opset1">
			<data element_type="f16" offset="9970" shape="" size="2"/>
			<output>
				<port id="1" precision="FP16"/>
			</output>
		</layer>
		<layer id="119" name="383/fq_input_0" type="FakeQuantize" version="opset1">
			<data levels="256"/>
			<input>
				<port id="0">
					<dim>1</dim>
					<dim>24</dim>
					<dim>176</dim>
					<dim>176</dim>
				</port>
				<port id="1"/>
				<port id="2"/>
				<port id="3"/>
				<port id="4"/>
			</input>
			<output>
				<port id="5" precision="FP16">
					<dim>1</dim>
					<dim>24</dim>
					<dim>176</dim>
					<dim>176</dim>
				</port>
			</output>
		</layer>
		<layer id="120" name="383/fq_weights_1/Convert_to_float/Cast_019860_const" type="Const" version="opset1">
			<data element_type="u8" offset="9972" shape="144,24,1,1" size="3456"/>
			<output>
				<port id="1" precision="U8">
					<dim>144</dim>
					<dim>24</dim>
					<dim>1</dim>
					<dim>1</dim>
				</port>
			</output>
		</layer>
		<layer id="121" name="383/fq_weights_1/Convert_to_float" type="Convert" version="opset1">
			<data destination_type="f16"/>
			<input>
				<port id="0">
					<dim>144</dim>
					<dim>24</dim>
					<dim>1</dim>
					<dim>1</dim>
				</port>
			</input>
			<output>
				<port id="1" precision="FP16">
					<dim>144</dim>
					<dim>24</dim>
					<dim>1</dim>
					<dim>1</dim>
				</port>
			</output>
		</layer>
		<layer id="122" name="383/fq_weights_1/Copy/out_low16416_const" type="Const" version="opset1">
			<data element_type="f16" offset="0" shape="1" size="2"/>
			<output>
				<port id="1" precision="FP16">
					<dim>1</dim>
				</port>
			</output>
		</layer>
		<layer id="123" name="383/fq_weights_1/Copy/out_high16417_const" type="Const" version="opset1">
			<data element_type="f16" offset="868" shape="1" size="2"/>
			<output>
				<port id="1" precision="FP16">
					<dim>1</dim>
				</port>
			</output>
		</layer>
		<layer id="124" name="73207324_const" type="Const" version="opset1">
			<data element_type="f16" offset="13428" shape="144,1,1,1" size="288"/>
			<output>
				<port id="1" precision="FP16">
					<dim>144</dim>
					<dim>1</dim>
					<dim>1</dim>
					<dim>1</dim>
				</port>
			</output>
		</layer>
		<layer id="125" name="73217325_const" type="Const" version="opset1">
			<data element_type="f16" offset="13716" shape="144,1,1,1" size="288"/>
			<output>
				<port id="1" precision="FP16">
					<dim>144</dim>
					<dim>1</dim>
					<dim>1</dim>
					<dim>1</dim>
				</port>
			</output>
		</layer>
		<layer id="126" name="383/fq_weights_1" type="FakeQuantize" version="opset1">
			<data levels="255"/>
			<input>
				<port id="0">
					<dim>144</dim>
					<dim>24</dim>
					<dim>1</dim>
					<dim>1</dim>
				</port>
				<port id="1">
					<dim>1</dim>
				</port>
				<port id="2">
					<dim>1</dim>
				</port>
				<port id="3">
					<dim>144</dim>
					<dim>1</dim>
					<dim>1</dim>
					<dim>1</dim>
				</port>
				<port id="4">
					<dim>144</dim>
					<dim>1</dim>
					<dim>1</dim>
					<dim>1</dim>
				</port>
			</input>
			<output>
				<port id="5" precision="FP16">
					<dim>144</dim>
					<dim>24</dim>
					<dim>1</dim>
					<dim>1</dim>
				</port>
			</output>
		</layer>
		<layer id="127" name="383" type="Convolution" version="opset1">
			<data dilations="1,1" output_padding="0,0" pads_begin="0,0" pads_end="0,0" strides="1,1"/>
			<input>
				<port id="0">
					<dim>1</dim>
					<dim>24</dim>
					<dim>176</dim>
					<dim>176</dim>
				</port>
				<port id="1">
					<dim>144</dim>
					<dim>24</dim>
					<dim>1</dim>
					<dim>1</dim>
				</port>
			</input>
			<output>
				<port id="2" precision="FP16">
					<dim>1</dim>
					<dim>144</dim>
					<dim>176</dim>
					<dim>176</dim>
				</port>
			</output>
		</layer>
		<layer id="128" name="data_add_298712987631059/EltwiseUnsqueeze31681_const1769_const" type="Const" version="opset1">
			<data element_type="f16" offset="14004" shape="1,144,1,1" size="288"/>
			<output>
				<port id="1" precision="FP16">
					<dim>1</dim>
					<dim>144</dim>
					<dim>1</dim>
					<dim>1</dim>
				</port>
			</output>
		</layer>
		<layer id="129" name="384/variance/Fused_Add_" type="Add" version="opset1">
			<input>
				<port id="0">
					<dim>1</dim>
					<dim>144</dim>
					<dim>176</dim>
					<dim>176</dim>
				</port>
				<port id="1">
					<dim>1</dim>
					<dim>144</dim>
					<dim>1</dim>
					<dim>1</dim>
				</port>
			</input>
			<output>
				<port id="2" precision="FP16">
					<dim>1</dim>
					<dim>144</dim>
					<dim>176</dim>
					<dim>176</dim>
				</port>
			</output>
		</layer>
		<layer id="130" name="385" type="Clamp" version="opset1">
			<data max="6.0" min="0.0"/>
			<input>
				<port id="0">
					<dim>1</dim>
					<dim>144</dim>
					<dim>176</dim>
					<dim>176</dim>
				</port>
			</input>
			<output>
				<port id="1" precision="FP16">
					<dim>1</dim>
					<dim>144</dim>
					<dim>176</dim>
					<dim>176</dim>
				</port>
			</output>
		</layer>
		<layer id="131" name="76987702_const" type="Const" version="opset1">
			<data element_type="f16" offset="14292" shape="1,144,1,1" size="288"/>
			<output>
				<port id="1" precision="FP16">
					<dim>1</dim>
					<dim>144</dim>
					<dim>1</dim>
					<dim>1</dim>
				</port>
			</output>
		</layer>
		<layer id="132" name="76997703_const" type="Const" version="opset1">
			<data element_type="f16" offset="14580" shape="1,144,1,1" size="288"/>
			<output>
				<port id="1" precision="FP16">
					<dim>1</dim>
					<dim>144</dim>
					<dim>1</dim>
					<dim>1</dim>
				</port>
			</output>
		</layer>
		<layer id="133" name="77007704_const" type="Const" version="opset1">
			<data element_type="f16" offset="14292" shape="1,144,1,1" size="288"/>
			<output>
				<port id="1" precision="FP16">
					<dim>1</dim>
					<dim>144</dim>
					<dim>1</dim>
					<dim>1</dim>
				</port>
			</output>
		</layer>
		<layer id="134" name="77017705_const" type="Const" version="opset1">
			<data element_type="f16" offset="14580" shape="1,144,1,1" size="288"/>
			<output>
				<port id="1" precision="FP16">
					<dim>1</dim>
					<dim>144</dim>
					<dim>1</dim>
					<dim>1</dim>
				</port>
			</output>
		</layer>
		<layer id="135" name="386/fq_input_0" type="FakeQuantize" version="opset1">
			<data levels="256"/>
			<input>
				<port id="0">
					<dim>1</dim>
					<dim>144</dim>
					<dim>176</dim>
					<dim>176</dim>
				</port>
				<port id="1">
					<dim>1</dim>
					<dim>144</dim>
					<dim>1</dim>
					<dim>1</dim>
				</port>
				<port id="2">
					<dim>1</dim>
					<dim>144</dim>
					<dim>1</dim>
					<dim>1</dim>
				</port>
				<port id="3">
					<dim>1</dim>
					<dim>144</dim>
					<dim>1</dim>
					<dim>1</dim>
				</port>
				<port id="4">
					<dim>1</dim>
					<dim>144</dim>
					<dim>1</dim>
					<dim>1</dim>
				</port>
			</input>
			<output>
				<port id="5" precision="FP16">
					<dim>1</dim>
					<dim>144</dim>
					<dim>176</dim>
					<dim>176</dim>
				</port>
			</output>
		</layer>
		<layer id="136" name="386/fq_weights_1/Convert_to_float/Cast_019708_const" type="Const" version="opset1">
			<data element_type="u8" offset="14868" shape="144,1,3,3" size="1296"/>
			<output>
				<port id="1" precision="U8">
					<dim>144</dim>
					<dim>1</dim>
					<dim>3</dim>
					<dim>3</dim>
				</port>
			</output>
		</layer>
		<layer id="137" name="386/fq_weights_1/Convert_to_float" type="Convert" version="opset1">
			<data destination_type="f16"/>
			<input>
				<port id="0">
					<dim>144</dim>
					<dim>1</dim>
					<dim>3</dim>
					<dim>3</dim>
				</port>
			</input>
			<output>
				<port id="1" precision="FP16">
					<dim>144</dim>
					<dim>1</dim>
					<dim>3</dim>
					<dim>3</dim>
				</port>
			</output>
		</layer>
		<layer id="138" name="386/fq_weights_1/Copy/out_low16584_const" type="Const" version="opset1">
			<data element_type="f16" offset="0" shape="1" size="2"/>
			<output>
				<port id="1" precision="FP16">
					<dim>1</dim>
				</port>
			</output>
		</layer>
		<layer id="139" name="386/fq_weights_1/Copy/out_high16585_const" type="Const" version="opset1">
			<data element_type="f16" offset="868" shape="1" size="2"/>
			<output>
				<port id="1" precision="FP16">
					<dim>1</dim>
				</port>
			</output>
		</layer>
		<layer id="140" name="77107714_const" type="Const" version="opset1">
			<data element_type="f16" offset="16164" shape="144,1,1,1" size="288"/>
			<output>
				<port id="1" precision="FP16">
					<dim>144</dim>
					<dim>1</dim>
					<dim>1</dim>
					<dim>1</dim>
				</port>
			</output>
		</layer>
		<layer id="141" name="77117715_const" type="Const" version="opset1">
			<data element_type="f16" offset="16452" shape="144,1,1,1" size="288"/>
			<output>
				<port id="1" precision="FP16">
					<dim>144</dim>
					<dim>1</dim>
					<dim>1</dim>
					<dim>1</dim>
				</port>
			</output>
		</layer>
		<layer id="142" name="386/fq_weights_1" type="FakeQuantize" version="opset1">
			<data levels="255"/>
			<input>
				<port id="0">
					<dim>144</dim>
					<dim>1</dim>
					<dim>3</dim>
					<dim>3</dim>
				</port>
				<port id="1">
					<dim>1</dim>
				</port>
				<port id="2">
					<dim>1</dim>
				</port>
				<port id="3">
					<dim>144</dim>
					<dim>1</dim>
					<dim>1</dim>
					<dim>1</dim>
				</port>
				<port id="4">
					<dim>144</dim>
					<dim>1</dim>
					<dim>1</dim>
					<dim>1</dim>
				</port>
			</input>
			<output>
				<port id="5" precision="FP16">
					<dim>144</dim>
					<dim>1</dim>
					<dim>3</dim>
					<dim>3</dim>
				</port>
			</output>
		</layer>
		<layer id="143" name="21847/value21849_const" type="Const" version="opset1">
			<data element_type="i64" offset="16740" shape="5" size="40"/>
			<output>
				<port id="1" precision="I64">
					<dim>5</dim>
				</port>
			</output>
		</layer>
		<layer id="144" name="21847" type="Reshape" version="opset1">
			<data special_zero="True"/>
			<input>
				<port id="0">
					<dim>144</dim>
					<dim>1</dim>
					<dim>3</dim>
					<dim>3</dim>
				</port>
				<port id="1">
					<dim>5</dim>
				</port>
			</input>
			<output>
				<port id="2" precision="FP16">
					<dim>144</dim>
					<dim>1</dim>
					<dim>1</dim>
					<dim>3</dim>
					<dim>3</dim>
				</port>
			</output>
		</layer>
		<layer id="145" name="386" type="GroupConvolution" version="opset1">
			<data dilations="1,1" output_padding="0,0" pads_begin="1,1" pads_end="1,1" strides="1,1"/>
			<input>
				<port id="0">
					<dim>1</dim>
					<dim>144</dim>
					<dim>176</dim>
					<dim>176</dim>
				</port>
				<port id="1">
					<dim>144</dim>
					<dim>1</dim>
					<dim>1</dim>
					<dim>3</dim>
					<dim>3</dim>
				</port>
			</input>
			<output>
				<port id="2" precision="FP16">
					<dim>1</dim>
					<dim>144</dim>
					<dim>176</dim>
					<dim>176</dim>
				</port>
			</output>
		</layer>
		<layer id="146" name="data_add_298792988431061/EltwiseUnsqueeze31689_const1774_const" type="Const" version="opset1">
			<data element_type="f16" offset="16780" shape="1,144,1,1" size="288"/>
			<output>
				<port id="1" precision="FP16">
					<dim>1</dim>
					<dim>144</dim>
					<dim>1</dim>
					<dim>1</dim>
				</port>
			</output>
		</layer>
		<layer id="147" name="387/variance/Fused_Add_" type="Add" version="opset1">
			<input>
				<port id="0">
					<dim>1</dim>
					<dim>144</dim>
					<dim>176</dim>
					<dim>176</dim>
				</port>
				<port id="1">
					<dim>1</dim>
					<dim>144</dim>
					<dim>1</dim>
					<dim>1</dim>
				</port>
			</input>
			<output>
				<port id="2" precision="FP16">
					<dim>1</dim>
					<dim>144</dim>
					<dim>176</dim>
					<dim>176</dim>
				</port>
			</output>
		</layer>
		<layer id="148" name="388" type="Clamp" version="opset1">
			<data max="6.0" min="0.0"/>
			<input>
				<port id="0">
					<dim>1</dim>
					<dim>144</dim>
					<dim>176</dim>
					<dim>176</dim>
				</port>
			</input>
			<output>
				<port id="1" precision="FP16">
					<dim>1</dim>
					<dim>144</dim>
					<dim>176</dim>
					<dim>176</dim>
				</port>
			</output>
		</layer>
		<layer id="149" name="71487152_const" type="Const" version="opset1">
			<data element_type="f16" offset="0" shape="" size="2"/>
			<output>
				<port id="1" precision="FP16"/>
			</output>
		</layer>
		<layer id="150" name="71497153_const" type="Const" version="opset1">
			<data element_type="f16" offset="2928" shape="" size="2"/>
			<output>
				<port id="1" precision="FP16"/>
			</output>
		</layer>
		<layer id="151" name="71507154_const" type="Const" version="opset1">
			<data element_type="f16" offset="0" shape="" size="2"/>
			<output>
				<port id="1" precision="FP16"/>
			</output>
		</layer>
		<layer id="152" name="71517155_const" type="Const" version="opset1">
			<data element_type="f16" offset="2928" shape="" size="2"/>
			<output>
				<port id="1" precision="FP16"/>
			</output>
		</layer>
		<layer id="153" name="389/fq_input_0" type="FakeQuantize" version="opset1">
			<data levels="256"/>
			<input>
				<port id="0">
					<dim>1</dim>
					<dim>144</dim>
					<dim>176</dim>
					<dim>176</dim>
				</port>
				<port id="1"/>
				<port id="2"/>
				<port id="3"/>
				<port id="4"/>
			</input>
			<output>
				<port id="5" precision="FP16">
					<dim>1</dim>
					<dim>144</dim>
					<dim>176</dim>
					<dim>176</dim>
				</port>
			</output>
		</layer>
		<layer id="154" name="389/fq_weights_1/Convert_to_float/Cast_019280_const" type="Const" version="opset1">
			<data element_type="u8" offset="17068" shape="24,144,1,1" size="3456"/>
			<output>
				<port id="1" precision="U8">
					<dim>24</dim>
					<dim>144</dim>
					<dim>1</dim>
					<dim>1</dim>
				</port>
			</output>
		</layer>
		<layer id="155" name="389/fq_weights_1/Convert_to_float" type="Convert" version="opset1">
			<data destination_type="f16"/>
			<input>
				<port id="0">
					<dim>24</dim>
					<dim>144</dim>
					<dim>1</dim>
					<dim>1</dim>
				</port>
			</input>
			<output>
				<port id="1" precision="FP16">
					<dim>24</dim>
					<dim>144</dim>
					<dim>1</dim>
					<dim>1</dim>
				</port>
			</output>
		</layer>
		<layer id="156" name="389/fq_weights_1/Copy/out_low16624_const" type="Const" version="opset1">
			<data element_type="f16" offset="0" shape="1" size="2"/>
			<output>
				<port id="1" precision="FP16">
					<dim>1</dim>
				</port>
			</output>
		</layer>
		<layer id="157" name="389/fq_weights_1/Copy/out_high16625_const" type="Const" version="opset1">
			<data element_type="f16" offset="868" shape="1" size="2"/>
			<output>
				<port id="1" precision="FP16">
					<dim>1</dim>
				</port>
			</output>
		</layer>
		<layer id="158" name="71607164_const" type="Const" version="opset1">
			<data element_type="f16" offset="20524" shape="24,1,1,1" size="48"/>
			<output>
				<port id="1" precision="FP16">
					<dim>24</dim>
					<dim>1</dim>
					<dim>1</dim>
					<dim>1</dim>
				</port>
			</output>
		</layer>
		<layer id="159" name="71617165_const" type="Const" version="opset1">
			<data element_type="f16" offset="20572" shape="24,1,1,1" size="48"/>
			<output>
				<port id="1" precision="FP16">
					<dim>24</dim>
					<dim>1</dim>
					<dim>1</dim>
					<dim>1</dim>
				</port>
			</output>
		</layer>
		<layer id="160" name="389/fq_weights_1" type="FakeQuantize" version="opset1">
			<data levels="255"/>
			<input>
				<port id="0">
					<dim>24</dim>
					<dim>144</dim>
					<dim>1</dim>
					<dim>1</dim>
				</port>
				<port id="1">
					<dim>1</dim>
				</port>
				<port id="2">
					<dim>1</dim>
				</port>
				<port id="3">
					<dim>24</dim>
					<dim>1</dim>
					<dim>1</dim>
					<dim>1</dim>
				</port>
				<port id="4">
					<dim>24</dim>
					<dim>1</dim>
					<dim>1</dim>
					<dim>1</dim>
				</port>
			</input>
			<output>
				<port id="5" precision="FP16">
					<dim>24</dim>
					<dim>144</dim>
					<dim>1</dim>
					<dim>1</dim>
				</port>
			</output>
		</layer>
		<layer id="161" name="389" type="Convolution" version="opset1">
			<data dilations="1,1" output_padding="0,0" pads_begin="0,0" pads_end="0,0" strides="1,1"/>
			<input>
				<port id="0">
					<dim>1</dim>
					<dim>144</dim>
					<dim>176</dim>
					<dim>176</dim>
				</port>
				<port id="1">
					<dim>24</dim>
					<dim>144</dim>
					<dim>1</dim>
					<dim>1</dim>
				</port>
			</input>
			<output>
				<port id="2" precision="FP16">
					<dim>1</dim>
					<dim>24</dim>
					<dim>176</dim>
					<dim>176</dim>
				</port>
			</output>
		</layer>
		<layer id="162" name="data_add_298872989231063/EltwiseUnsqueeze31697_const1779_const" type="Const" version="opset1">
			<data element_type="f16" offset="20620" shape="1,24,1,1" size="48"/>
			<output>
				<port id="1" precision="FP16">
					<dim>1</dim>
					<dim>24</dim>
					<dim>1</dim>
					<dim>1</dim>
				</port>
			</output>
		</layer>
		<layer id="163" name="390/variance/Fused_Add_" type="Add" version="opset1">
			<input>
				<port id="0">
					<dim>1</dim>
					<dim>24</dim>
					<dim>176</dim>
					<dim>176</dim>
				</port>
				<port id="1">
					<dim>1</dim>
					<dim>24</dim>
					<dim>1</dim>
					<dim>1</dim>
				</port>
			</input>
			<output>
				<port id="2" precision="FP16">
					<dim>1</dim>
					<dim>24</dim>
					<dim>176</dim>
					<dim>176</dim>
				</port>
			</output>
		</layer>
		<layer id="164" name="74087412_const" type="Const" version="opset1">
			<data element_type="f16" offset="20668" shape="" size="2"/>
			<output>
				<port id="1" precision="FP16"/>
			</output>
		</layer>
		<layer id="165" name="74097413_const" type="Const" version="opset1">
			<data element_type="f16" offset="20670" shape="" size="2"/>
			<output>
				<port id="1" precision="FP16"/>
			</output>
		</layer>
		<layer id="166" name="74107414_const" type="Const" version="opset1">
			<data element_type="f16" offset="20668" shape="" size="2"/>
			<output>
				<port id="1" precision="FP16"/>
			</output>
		</layer>
		<layer id="167" name="74117415_const" type="Const" version="opset1">
			<data element_type="f16" offset="20670" shape="" size="2"/>
			<output>
				<port id="1" precision="FP16"/>
			</output>
		</layer>
		<layer id="168" name="391/fq_input_0" type="FakeQuantize" version="opset1">
			<data levels="256"/>
			<input>
				<port id="0">
					<dim>1</dim>
					<dim>24</dim>
					<dim>176</dim>
					<dim>176</dim>
				</port>
				<port id="1"/>
				<port id="2"/>
				<port id="3"/>
				<port id="4"/>
			</input>
			<output>
				<port id="5" precision="FP16">
					<dim>1</dim>
					<dim>24</dim>
					<dim>176</dim>
					<dim>176</dim>
				</port>
			</output>
		</layer>
		<layer id="169" name="391" type="Add" version="opset1">
			<input>
				<port id="0">
					<dim>1</dim>
					<dim>24</dim>
					<dim>176</dim>
					<dim>176</dim>
				</port>
				<port id="1">
					<dim>1</dim>
					<dim>24</dim>
					<dim>176</dim>
					<dim>176</dim>
				</port>
			</input>
			<output>
				<port id="2" precision="FP16">
					<dim>1</dim>
					<dim>24</dim>
					<dim>176</dim>
					<dim>176</dim>
				</port>
			</output>
		</layer>
		<layer id="170" name="62386242_const" type="Const" version="opset1">
			<data element_type="f16" offset="20672" shape="" size="2"/>
			<output>
				<port id="1" precision="FP16"/>
			</output>
		</layer>
		<layer id="171" name="62396243_const" type="Const" version="opset1">
			<data element_type="f16" offset="20674" shape="" size="2"/>
			<output>
				<port id="1" precision="FP16"/>
			</output>
		</layer>
		<layer id="172" name="62406244_const" type="Const" version="opset1">
			<data element_type="f16" offset="20672" shape="" size="2"/>
			<output>
				<port id="1" precision="FP16"/>
			</output>
		</layer>
		<layer id="173" name="62416245_const" type="Const" version="opset1">
			<data element_type="f16" offset="20674" shape="" size="2"/>
			<output>
				<port id="1" precision="FP16"/>
			</output>
		</layer>
		<layer id="174" name="392/fq_input_0" type="FakeQuantize" version="opset1">
			<data levels="256"/>
			<input>
				<port id="0">
					<dim>1</dim>
					<dim>24</dim>
					<dim>176</dim>
					<dim>176</dim>
				</port>
				<port id="1"/>
				<port id="2"/>
				<port id="3"/>
				<port id="4"/>
			</input>
			<output>
				<port id="5" precision="FP16">
					<dim>1</dim>
					<dim>24</dim>
					<dim>176</dim>
					<dim>176</dim>
				</port>
			</output>
		</layer>
		<layer id="175" name="392/fq_weights_1/Convert_to_float/Cast_019180_const" type="Const" version="opset1">
			<data element_type="u8" offset="20676" shape="144,24,1,1" size="3456"/>
			<output>
				<port id="1" precision="U8">
					<dim>144</dim>
					<dim>24</dim>
					<dim>1</dim>
					<dim>1</dim>
				</port>
			</output>
		</layer>
		<layer id="176" name="392/fq_weights_1/Convert_to_float" type="Convert" version="opset1">
			<data destination_type="f16"/>
			<input>
				<port id="0">
					<dim>144</dim>
					<dim>24</dim>
					<dim>1</dim>
					<dim>1</dim>
				</port>
			</input>
			<output>
				<port id="1" precision="FP16">
					<dim>144</dim>
					<dim>24</dim>
					<dim>1</dim>
					<dim>1</dim>
				</port>
			</output>
		</layer>
		<layer id="177" name="392/fq_weights_1/Copy/out_low16504_const" type="Const" version="opset1">
			<data element_type="f16" offset="0" shape="1" size="2"/>
			<output>
				<port id="1" precision="FP16">
					<dim>1</dim>
				</port>
			</output>
		</layer>
		<layer id="178" name="392/fq_weights_1/Copy/out_high16505_const" type="Const" version="opset1">
			<data element_type="f16" offset="868" shape="1" size="2"/>
			<output>
				<port id="1" precision="FP16">
					<dim>1</dim>
				</port>
			</output>
		</layer>
		<layer id="179" name="62506254_const" type="Const" version="opset1">
			<data element_type="f16" offset="24132" shape="144,1,1,1" size="288"/>
			<output>
				<port id="1" precision="FP16">
					<dim>144</dim>
					<dim>1</dim>
					<dim>1</dim>
					<dim>1</dim>
				</port>
			</output>
		</layer>
		<layer id="180" name="62516255_const" type="Const" version="opset1">
			<data element_type="f16" offset="24420" shape="144,1,1,1" size="288"/>
			<output>
				<port id="1" precision="FP16">
					<dim>144</dim>
					<dim>1</dim>
					<dim>1</dim>
					<dim>1</dim>
				</port>
			</output>
		</layer>
		<layer id="181" name="392/fq_weights_1" type="FakeQuantize" version="opset1">
			<data levels="255"/>
			<input>
				<port id="0">
					<dim>144</dim>
					<dim>24</dim>
					<dim>1</dim>
					<dim>1</dim>
				</port>
				<port id="1">
					<dim>1</dim>
				</port>
				<port id="2">
					<dim>1</dim>
				</port>
				<port id="3">
					<dim>144</dim>
					<dim>1</dim>
					<dim>1</dim>
					<dim>1</dim>
				</port>
				<port id="4">
					<dim>144</dim>
					<dim>1</dim>
					<dim>1</dim>
					<dim>1</dim>
				</port>
			</input>
			<output>
				<port id="5" precision="FP16">
					<dim>144</dim>
					<dim>24</dim>
					<dim>1</dim>
					<dim>1</dim>
				</port>
			</output>
		</layer>
		<layer id="182" name="392" type="Convolution" version="opset1">
			<data dilations="1,1" output_padding="0,0" pads_begin="0,0" pads_end="0,0" strides="1,1"/>
			<input>
				<port id="0">
					<dim>1</dim>
					<dim>24</dim>
					<dim>176</dim>
					<dim>176</dim>
				</port>
				<port id="1">
					<dim>144</dim>
					<dim>24</dim>
					<dim>1</dim>
					<dim>1</dim>
				</port>
			</input>
			<output>
				<port id="2" precision="FP16">
					<dim>1</dim>
					<dim>144</dim>
					<dim>176</dim>
					<dim>176</dim>
				</port>
			</output>
		</layer>
		<layer id="183" name="data_add_298952990031065/EltwiseUnsqueeze31705_const1784_const" type="Const" version="opset1">
			<data element_type="f16" offset="24708" shape="1,144,1,1" size="288"/>
			<output>
				<port id="1" precision="FP16">
					<dim>1</dim>
					<dim>144</dim>
					<dim>1</dim>
					<dim>1</dim>
				</port>
			</output>
		</layer>
		<layer id="184" name="393/variance/Fused_Add_" type="Add" version="opset1">
			<input>
				<port id="0">
					<dim>1</dim>
					<dim>144</dim>
					<dim>176</dim>
					<dim>176</dim>
				</port>
				<port id="1">
					<dim>1</dim>
					<dim>144</dim>
					<dim>1</dim>
					<dim>1</dim>
				</port>
			</input>
			<output>
				<port id="2" precision="FP16">
					<dim>1</dim>
					<dim>144</dim>
					<dim>176</dim>
					<dim>176</dim>
				</port>
			</output>
		</layer>
		<layer id="185" name="394" type="Clamp" version="opset1">
			<data max="6.0" min="0.0"/>
			<input>
				<port id="0">
					<dim>1</dim>
					<dim>144</dim>
					<dim>176</dim>
					<dim>176</dim>
				</port>
			</input>
			<output>
				<port id="1" precision="FP16">
					<dim>1</dim>
					<dim>144</dim>
					<dim>176</dim>
					<dim>176</dim>
				</port>
			</output>
		</layer>
		<layer id="186" name="82488252_const" type="Const" version="opset1">
			<data element_type="f16" offset="14292" shape="1,144,1,1" size="288"/>
			<output>
				<port id="1" precision="FP16">
					<dim>1</dim>
					<dim>144</dim>
					<dim>1</dim>
					<dim>1</dim>
				</port>
			</output>
		</layer>
		<layer id="187" name="82498253_const" type="Const" version="opset1">
			<data element_type="f16" offset="24996" shape="1,144,1,1" size="288"/>
			<output>
				<port id="1" precision="FP16">
					<dim>1</dim>
					<dim>144</dim>
					<dim>1</dim>
					<dim>1</dim>
				</port>
			</output>
		</layer>
		<layer id="188" name="82508254_const" type="Const" version="opset1">
			<data element_type="f16" offset="14292" shape="1,144,1,1" size="288"/>
			<output>
				<port id="1" precision="FP16">
					<dim>1</dim>
					<dim>144</dim>
					<dim>1</dim>
					<dim>1</dim>
				</port>
			</output>
		</layer>
		<layer id="189" name="82518255_const" type="Const" version="opset1">
			<data element_type="f16" offset="24996" shape="1,144,1,1" size="288"/>
			<output>
				<port id="1" precision="FP16">
					<dim>1</dim>
					<dim>144</dim>
					<dim>1</dim>
					<dim>1</dim>
				</port>
			</output>
		</layer>
		<layer id="190" name="395/fq_input_0" type="FakeQuantize" version="opset1">
			<data levels="256"/>
			<input>
				<port id="0">
					<dim>1</dim>
					<dim>144</dim>
					<dim>176</dim>
					<dim>176</dim>
				</port>
				<port id="1">
					<dim>1</dim>
					<dim>144</dim>
					<dim>1</dim>
					<dim>1</dim>
				</port>
				<port id="2">
					<dim>1</dim>
					<dim>144</dim>
					<dim>1</dim>
					<dim>1</dim>
				</port>
				<port id="3">
					<dim>1</dim>
					<dim>144</dim>
					<dim>1</dim>
					<dim>1</dim>
				</port>
				<port id="4">
					<dim>1</dim>
					<dim>144</dim>
					<dim>1</dim>
					<dim>1</dim>
				</port>
			</input>
			<output>
				<port id="5" precision="FP16">
					<dim>1</dim>
					<dim>144</dim>
					<dim>176</dim>
					<dim>176</dim>
				</port>
			</output>
		</layer>
		<layer id="191" name="395/fq_weights_1/Convert_to_float/Cast_019408_const" type="Const" version="opset1">
			<data element_type="u8" offset="25284" shape="144,1,3,3" size="1296"/>
			<output>
				<port id="1" precision="U8">
					<dim>144</dim>
					<dim>1</dim>
					<dim>3</dim>
					<dim>3</dim>
				</port>
			</output>
		</layer>
		<layer id="192" name="395/fq_weights_1/Convert_to_float" type="Convert" version="opset1">
			<data destination_type="f16"/>
			<input>
				<port id="0">
					<dim>144</dim>
					<dim>1</dim>
					<dim>3</dim>
					<dim>3</dim>
				</port>
			</input>
			<output>
				<port id="1" precision="FP16">
					<dim>144</dim>
					<dim>1</dim>
					<dim>3</dim>
					<dim>3</dim>
				</port>
			</output>
		</layer>
		<layer id="193" name="395/fq_weights_1/Copy/out_low17264_const" type="Const" version="opset1">
			<data element_type="f16" offset="0" shape="1" size="2"/>
			<output>
				<port id="1" precision="FP16">
					<dim>1</dim>
				</port>
			</output>
		</layer>
		<layer id="194" name="395/fq_weights_1/Copy/out_high17265_const" type="Const" version="opset1">
			<data element_type="f16" offset="868" shape="1" size="2"/>
			<output>
				<port id="1" precision="FP16">
					<dim>1</dim>
				</port>
			</output>
		</layer>
		<layer id="195" name="82608264_const" type="Const" version="opset1">
			<data element_type="f16" offset="26580" shape="144,1,1,1" size="288"/>
			<output>
				<port id="1" precision="FP16">
					<dim>144</dim>
					<dim>1</dim>
					<dim>1</dim>
					<dim>1</dim>
				</port>
			</output>
		</layer>
		<layer id="196" name="82618265_const" type="Const" version="opset1">
			<data element_type="f16" offset="26868" shape="144,1,1,1" size="288"/>
			<output>
				<port id="1" precision="FP16">
					<dim>144</dim>
					<dim>1</dim>
					<dim>1</dim>
					<dim>1</dim>
				</port>
			</output>
		</layer>
		<layer id="197" name="395/fq_weights_1" type="FakeQuantize" version="opset1">
			<data levels="255"/>
			<input>
				<port id="0">
					<dim>144</dim>
					<dim>1</dim>
					<dim>3</dim>
					<dim>3</dim>
				</port>
				<port id="1">
					<dim>1</dim>
				</port>
				<port id="2">
					<dim>1</dim>
				</port>
				<port id="3">
					<dim>144</dim>
					<dim>1</dim>
					<dim>1</dim>
					<dim>1</dim>
				</port>
				<port id="4">
					<dim>144</dim>
					<dim>1</dim>
					<dim>1</dim>
					<dim>1</dim>
				</port>
			</input>
			<output>
				<port id="5" precision="FP16">
					<dim>144</dim>
					<dim>1</dim>
					<dim>3</dim>
					<dim>3</dim>
				</port>
			</output>
		</layer>
		<layer id="198" name="21851/value21853_const" type="Const" version="opset1">
			<data element_type="i64" offset="16740" shape="5" size="40"/>
			<output>
				<port id="1" precision="I64">
					<dim>5</dim>
				</port>
			</output>
		</layer>
		<layer id="199" name="21851" type="Reshape" version="opset1">
			<data special_zero="True"/>
			<input>
				<port id="0">
					<dim>144</dim>
					<dim>1</dim>
					<dim>3</dim>
					<dim>3</dim>
				</port>
				<port id="1">
					<dim>5</dim>
				</port>
			</input>
			<output>
				<port id="2" precision="FP16">
					<dim>144</dim>
					<dim>1</dim>
					<dim>1</dim>
					<dim>3</dim>
					<dim>3</dim>
				</port>
			</output>
		</layer>
		<layer id="200" name="395" type="GroupConvolution" version="opset1">
			<data dilations="1,1" output_padding="0,0" pads_begin="1,1" pads_end="1,1" strides="2,2"/>
			<input>
				<port id="0">
					<dim>1</dim>
					<dim>144</dim>
					<dim>176</dim>
					<dim>176</dim>
				</port>
				<port id="1">
					<dim>144</dim>
					<dim>1</dim>
					<dim>1</dim>
					<dim>3</dim>
					<dim>3</dim>
				</port>
			</input>
			<output>
				<port id="2" precision="FP16">
					<dim>1</dim>
					<dim>144</dim>
					<dim>88</dim>
					<dim>88</dim>
				</port>
			</output>
		</layer>
		<layer id="201" name="data_add_299032990831067/EltwiseUnsqueeze31713_const1789_const" type="Const" version="opset1">
			<data element_type="f16" offset="27156" shape="1,144,1,1" size="288"/>
			<output>
				<port id="1" precision="FP16">
					<dim>1</dim>
					<dim>144</dim>
					<dim>1</dim>
					<dim>1</dim>
				</port>
			</output>
		</layer>
		<layer id="202" name="396/variance/Fused_Add_" type="Add" version="opset1">
			<input>
				<port id="0">
					<dim>1</dim>
					<dim>144</dim>
					<dim>88</dim>
					<dim>88</dim>
				</port>
				<port id="1">
					<dim>1</dim>
					<dim>144</dim>
					<dim>1</dim>
					<dim>1</dim>
				</port>
			</input>
			<output>
				<port id="2" precision="FP16">
					<dim>1</dim>
					<dim>144</dim>
					<dim>88</dim>
					<dim>88</dim>
				</port>
			</output>
		</layer>
		<layer id="203" name="397" type="Clamp" version="opset1">
			<data max="6.0" min="0.0"/>
			<input>
				<port id="0">
					<dim>1</dim>
					<dim>144</dim>
					<dim>88</dim>
					<dim>88</dim>
				</port>
			</input>
			<output>
				<port id="1" precision="FP16">
					<dim>1</dim>
					<dim>144</dim>
					<dim>88</dim>
					<dim>88</dim>
				</port>
			</output>
		</layer>
		<layer id="204" name="70087012_const" type="Const" version="opset1">
			<data element_type="f16" offset="0" shape="" size="2"/>
			<output>
				<port id="1" precision="FP16"/>
			</output>
		</layer>
		<layer id="205" name="70097013_const" type="Const" version="opset1">
			<data element_type="f16" offset="27444" shape="" size="2"/>
			<output>
				<port id="1" precision="FP16"/>
			</output>
		</layer>
		<layer id="206" name="70107014_const" type="Const" version="opset1">
			<data element_type="f16" offset="0" shape="" size="2"/>
			<output>
				<port id="1" precision="FP16"/>
			</output>
		</layer>
		<layer id="207" name="70117015_const" type="Const" version="opset1">
			<data element_type="f16" offset="27444" shape="" size="2"/>
			<output>
				<port id="1" precision="FP16"/>
			</output>
		</layer>
		<layer id="208" name="398/fq_input_0" type="FakeQuantize" version="opset1">
			<data levels="256"/>
			<input>
				<port id="0">
					<dim>1</dim>
					<dim>144</dim>
					<dim>88</dim>
					<dim>88</dim>
				</port>
				<port id="1"/>
				<port id="2"/>
				<port id="3"/>
				<port id="4"/>
			</input>
			<output>
				<port id="5" precision="FP16">
					<dim>1</dim>
					<dim>144</dim>
					<dim>88</dim>
					<dim>88</dim>
				</port>
			</output>
		</layer>
		<layer id="209" name="398/fq_weights_1/Convert_to_float/Cast_019186_const" type="Const" version="opset1">
			<data element_type="u8" offset="27446" shape="32,144,1,1" size="4608"/>
			<output>
				<port id="1" precision="U8">
					<dim>32</dim>
					<dim>144</dim>
					<dim>1</dim>
					<dim>1</dim>
				</port>
			</output>
		</layer>
		<layer id="210" name="398/fq_weights_1/Convert_to_float" type="Convert" version="opset1">
			<data destination_type="f16"/>
			<input>
				<port id="0">
					<dim>32</dim>
					<dim>144</dim>
					<dim>1</dim>
					<dim>1</dim>
				</port>
			</input>
			<output>
				<port id="1" precision="FP16">
					<dim>32</dim>
					<dim>144</dim>
					<dim>1</dim>
					<dim>1</dim>
				</port>
			</output>
		</layer>
		<layer id="211" name="398/fq_weights_1/Copy/out_low16464_const" type="Const" version="opset1">
			<data element_type="f16" offset="0" shape="1" size="2"/>
			<output>
				<port id="1" precision="FP16">
					<dim>1</dim>
				</port>
			</output>
		</layer>
		<layer id="212" name="398/fq_weights_1/Copy/out_high16465_const" type="Const" version="opset1">
			<data element_type="f16" offset="868" shape="1" size="2"/>
			<output>
				<port id="1" precision="FP16">
					<dim>1</dim>
				</port>
			</output>
		</layer>
		<layer id="213" name="70207024_const" type="Const" version="opset1">
			<data element_type="f16" offset="32054" shape="32,1,1,1" size="64"/>
			<output>
				<port id="1" precision="FP16">
					<dim>32</dim>
					<dim>1</dim>
					<dim>1</dim>
					<dim>1</dim>
				</port>
			</output>
		</layer>
		<layer id="214" name="70217025_const" type="Const" version="opset1">
			<data element_type="f16" offset="32118" shape="32,1,1,1" size="64"/>
			<output>
				<port id="1" precision="FP16">
					<dim>32</dim>
					<dim>1</dim>
					<dim>1</dim>
					<dim>1</dim>
				</port>
			</output>
		</layer>
		<layer id="215" name="398/fq_weights_1" type="FakeQuantize" version="opset1">
			<data levels="255"/>
			<input>
				<port id="0">
					<dim>32</dim>
					<dim>144</dim>
					<dim>1</dim>
					<dim>1</dim>
				</port>
				<port id="1">
					<dim>1</dim>
				</port>
				<port id="2">
					<dim>1</dim>
				</port>
				<port id="3">
					<dim>32</dim>
					<dim>1</dim>
					<dim>1</dim>
					<dim>1</dim>
				</port>
				<port id="4">
					<dim>32</dim>
					<dim>1</dim>
					<dim>1</dim>
					<dim>1</dim>
				</port>
			</input>
			<output>
				<port id="5" precision="FP16">
					<dim>32</dim>
					<dim>144</dim>
					<dim>1</dim>
					<dim>1</dim>
				</port>
			</output>
		</layer>
		<layer id="216" name="398" type="Convolution" version="opset1">
			<data dilations="1,1" output_padding="0,0" pads_begin="0,0" pads_end="0,0" strides="1,1"/>
			<input>
				<port id="0">
					<dim>1</dim>
					<dim>144</dim>
					<dim>88</dim>
					<dim>88</dim>
				</port>
				<port id="1">
					<dim>32</dim>
					<dim>144</dim>
					<dim>1</dim>
					<dim>1</dim>
				</port>
			</input>
			<output>
				<port id="2" precision="FP16">
					<dim>1</dim>
					<dim>32</dim>
					<dim>88</dim>
					<dim>88</dim>
				</port>
			</output>
		</layer>
		<layer id="217" name="data_add_299112991631069/EltwiseUnsqueeze31721_const1794_const" type="Const" version="opset1">
			<data element_type="f16" offset="32182" shape="1,32,1,1" size="64"/>
			<output>
				<port id="1" precision="FP16">
					<dim>1</dim>
					<dim>32</dim>
					<dim>1</dim>
					<dim>1</dim>
				</port>
			</output>
		</layer>
		<layer id="218" name="399/variance/Fused_Add_" type="Add" version="opset1">
			<input>
				<port id="0">
					<dim>1</dim>
					<dim>32</dim>
					<dim>88</dim>
					<dim>88</dim>
				</port>
				<port id="1">
					<dim>1</dim>
					<dim>32</dim>
					<dim>1</dim>
					<dim>1</dim>
				</port>
			</input>
			<output>
				<port id="2" precision="FP16">
					<dim>1</dim>
					<dim>32</dim>
					<dim>88</dim>
					<dim>88</dim>
				</port>
			</output>
		</layer>
		<layer id="219" name="65586562_const" type="Const" version="opset1">
			<data element_type="f16" offset="32246" shape="" size="2"/>
			<output>
				<port id="1" precision="FP16"/>
			</output>
		</layer>
		<layer id="220" name="65596563_const" type="Const" version="opset1">
			<data element_type="f16" offset="32248" shape="" size="2"/>
			<output>
				<port id="1" precision="FP16"/>
			</output>
		</layer>
		<layer id="221" name="65606564_const" type="Const" version="opset1">
			<data element_type="f16" offset="32246" shape="" size="2"/>
			<output>
				<port id="1" precision="FP16"/>
			</output>
		</layer>
		<layer id="222" name="65616565_const" type="Const" version="opset1">
			<data element_type="f16" offset="32248" shape="" size="2"/>
			<output>
				<port id="1" precision="FP16"/>
			</output>
		</layer>
		<layer id="223" name="400/fq_input_0" type="FakeQuantize" version="opset1">
			<data levels="256"/>
			<input>
				<port id="0">
					<dim>1</dim>
					<dim>32</dim>
					<dim>88</dim>
					<dim>88</dim>
				</port>
				<port id="1"/>
				<port id="2"/>
				<port id="3"/>
				<port id="4"/>
			</input>
			<output>
				<port id="5" precision="FP16">
					<dim>1</dim>
					<dim>32</dim>
					<dim>88</dim>
					<dim>88</dim>
				</port>
			</output>
		</layer>
		<layer id="224" name="400/fq_weights_1/Convert_to_float/Cast_019368_const" type="Const" version="opset1">
			<data element_type="u8" offset="32250" shape="192,32,1,1" size="6144"/>
			<output>
				<port id="1" precision="U8">
					<dim>192</dim>
					<dim>32</dim>
					<dim>1</dim>
					<dim>1</dim>
				</port>
			</output>
		</layer>
		<layer id="225" name="400/fq_weights_1/Convert_to_float" type="Convert" version="opset1">
			<data destination_type="f16"/>
			<input>
				<port id="0">
					<dim>192</dim>
					<dim>32</dim>
					<dim>1</dim>
					<dim>1</dim>
				</port>
			</input>
			<output>
				<port id="1" precision="FP16">
					<dim>192</dim>
					<dim>32</dim>
					<dim>1</dim>
					<dim>1</dim>
				</port>
			</output>
		</layer>
		<layer id="226" name="400/fq_weights_1/Copy/out_low16640_const" type="Const" version="opset1">
			<data element_type="f16" offset="0" shape="1" size="2"/>
			<output>
				<port id="1" precision="FP16">
					<dim>1</dim>
				</port>
			</output>
		</layer>
		<layer id="227" name="400/fq_weights_1/Copy/out_high16641_const" type="Const" version="opset1">
			<data element_type="f16" offset="868" shape="1" size="2"/>
			<output>
				<port id="1" precision="FP16">
					<dim>1</dim>
				</port>
			</output>
		</layer>
		<layer id="228" name="65706574_const" type="Const" version="opset1">
			<data element_type="f16" offset="38394" shape="192,1,1,1" size="384"/>
			<output>
				<port id="1" precision="FP16">
					<dim>192</dim>
					<dim>1</dim>
					<dim>1</dim>
					<dim>1</dim>
				</port>
			</output>
		</layer>
		<layer id="229" name="65716575_const" type="Const" version="opset1">
			<data element_type="f16" offset="38778" shape="192,1,1,1" size="384"/>
			<output>
				<port id="1" precision="FP16">
					<dim>192</dim>
					<dim>1</dim>
					<dim>1</dim>
					<dim>1</dim>
				</port>
			</output>
		</layer>
		<layer id="230" name="400/fq_weights_1" type="FakeQuantize" version="opset1">
			<data levels="255"/>
			<input>
				<port id="0">
					<dim>192</dim>
					<dim>32</dim>
					<dim>1</dim>
					<dim>1</dim>
				</port>
				<port id="1">
					<dim>1</dim>
				</port>
				<port id="2">
					<dim>1</dim>
				</port>
				<port id="3">
					<dim>192</dim>
					<dim>1</dim>
					<dim>1</dim>
					<dim>1</dim>
				</port>
				<port id="4">
					<dim>192</dim>
					<dim>1</dim>
					<dim>1</dim>
					<dim>1</dim>
				</port>
			</input>
			<output>
				<port id="5" precision="FP16">
					<dim>192</dim>
					<dim>32</dim>
					<dim>1</dim>
					<dim>1</dim>
				</port>
			</output>
		</layer>
		<layer id="231" name="400" type="Convolution" version="opset1">
			<data dilations="1,1" output_padding="0,0" pads_begin="0,0" pads_end="0,0" strides="1,1"/>
			<input>
				<port id="0">
					<dim>1</dim>
					<dim>32</dim>
					<dim>88</dim>
					<dim>88</dim>
				</port>
				<port id="1">
					<dim>192</dim>
					<dim>32</dim>
					<dim>1</dim>
					<dim>1</dim>
				</port>
			</input>
			<output>
				<port id="2" precision="FP16">
					<dim>1</dim>
					<dim>192</dim>
					<dim>88</dim>
					<dim>88</dim>
				</port>
			</output>
		</layer>
		<layer id="232" name="data_add_299192992431071/EltwiseUnsqueeze31729_const1798_const" type="Const" version="opset1">
			<data element_type="f16" offset="39162" shape="1,192,1,1" size="384"/>
			<output>
				<port id="1" precision="FP16">
					<dim>1</dim>
					<dim>192</dim>
					<dim>1</dim>
					<dim>1</dim>
				</port>
			</output>
		</layer>
		<layer id="233" name="401/variance/Fused_Add_" type="Add" version="opset1">
			<input>
				<port id="0">
					<dim>1</dim>
					<dim>192</dim>
					<dim>88</dim>
					<dim>88</dim>
				</port>
				<port id="1">
					<dim>1</dim>
					<dim>192</dim>
					<dim>1</dim>
					<dim>1</dim>
				</port>
			</input>
			<output>
				<port id="2" precision="FP16">
					<dim>1</dim>
					<dim>192</dim>
					<dim>88</dim>
					<dim>88</dim>
				</port>
			</output>
		</layer>
		<layer id="234" name="402" type="Clamp" version="opset1">
			<data max="6.0" min="0.0"/>
			<input>
				<port id="0">
					<dim>1</dim>
					<dim>192</dim>
					<dim>88</dim>
					<dim>88</dim>
				</port>
			</input>
			<output>
				<port id="1" precision="FP16">
					<dim>1</dim>
					<dim>192</dim>
					<dim>88</dim>
					<dim>88</dim>
				</port>
			</output>
		</layer>
		<layer id="235" name="60086012_const" type="Const" version="opset1">
			<data element_type="f16" offset="39546" shape="1,192,1,1" size="384"/>
			<output>
				<port id="1" precision="FP16">
					<dim>1</dim>
					<dim>192</dim>
					<dim>1</dim>
					<dim>1</dim>
				</port>
			</output>
		</layer>
		<layer id="236" name="60096013_const" type="Const" version="opset1">
			<data element_type="f16" offset="39930" shape="1,192,1,1" size="384"/>
			<output>
				<port id="1" precision="FP16">
					<dim>1</dim>
					<dim>192</dim>
					<dim>1</dim>
					<dim>1</dim>
				</port>
			</output>
		</layer>
		<layer id="237" name="60106014_const" type="Const" version="opset1">
			<data element_type="f16" offset="39546" shape="1,192,1,1" size="384"/>
			<output>
				<port id="1" precision="FP16">
					<dim>1</dim>
					<dim>192</dim>
					<dim>1</dim>
					<dim>1</dim>
				</port>
			</output>
		</layer>
		<layer id="238" name="60116015_const" type="Const" version="opset1">
			<data element_type="f16" offset="39930" shape="1,192,1,1" size="384"/>
			<output>
				<port id="1" precision="FP16">
					<dim>1</dim>
					<dim>192</dim>
					<dim>1</dim>
					<dim>1</dim>
				</port>
			</output>
		</layer>
		<layer id="239" name="403/fq_input_0" type="FakeQuantize" version="opset1">
			<data levels="256"/>
			<input>
				<port id="0">
					<dim>1</dim>
					<dim>192</dim>
					<dim>88</dim>
					<dim>88</dim>
				</port>
				<port id="1">
					<dim>1</dim>
					<dim>192</dim>
					<dim>1</dim>
					<dim>1</dim>
				</port>
				<port id="2">
					<dim>1</dim>
					<dim>192</dim>
					<dim>1</dim>
					<dim>1</dim>
				</port>
				<port id="3">
					<dim>1</dim>
					<dim>192</dim>
					<dim>1</dim>
					<dim>1</dim>
				</port>
				<port id="4">
					<dim>1</dim>
					<dim>192</dim>
					<dim>1</dim>
					<dim>1</dim>
				</port>
			</input>
			<output>
				<port id="5" precision="FP16">
					<dim>1</dim>
					<dim>192</dim>
					<dim>88</dim>
					<dim>88</dim>
				</port>
			</output>
		</layer>
		<layer id="240" name="403/fq_weights_1/Convert_to_float/Cast_019756_const" type="Const" version="opset1">
			<data element_type="u8" offset="40314" shape="192,1,3,3" size="1728"/>
			<output>
				<port id="1" precision="U8">
					<dim>192</dim>
					<dim>1</dim>
					<dim>3</dim>
					<dim>3</dim>
				</port>
			</output>
		</layer>
		<layer id="241" name="403/fq_weights_1/Convert_to_float" type="Convert" version="opset1">
			<data destination_type="f16"/>
			<input>
				<port id="0">
					<dim>192</dim>
					<dim>1</dim>
					<dim>3</dim>
					<dim>3</dim>
				</port>
			</input>
			<output>
				<port id="1" precision="FP16">
					<dim>192</dim>
					<dim>1</dim>
					<dim>3</dim>
					<dim>3</dim>
				</port>
			</output>
		</layer>
		<layer id="242" name="403/fq_weights_1/Copy/out_low17152_const" type="Const" version="opset1">
			<data element_type="f16" offset="0" shape="1" size="2"/>
			<output>
				<port id="1" precision="FP16">
					<dim>1</dim>
				</port>
			</output>
		</layer>
		<layer id="243" name="403/fq_weights_1/Copy/out_high17153_const" type="Const" version="opset1">
			<data element_type="f16" offset="868" shape="1" size="2"/>
			<output>
				<port id="1" precision="FP16">
					<dim>1</dim>
				</port>
			</output>
		</layer>
		<layer id="244" name="60206024_const" type="Const" version="opset1">
			<data element_type="f16" offset="42042" shape="192,1,1,1" size="384"/>
			<output>
				<port id="1" precision="FP16">
					<dim>192</dim>
					<dim>1</dim>
					<dim>1</dim>
					<dim>1</dim>
				</port>
			</output>
		</layer>
		<layer id="245" name="60216025_const" type="Const" version="opset1">
			<data element_type="f16" offset="42426" shape="192,1,1,1" size="384"/>
			<output>
				<port id="1" precision="FP16">
					<dim>192</dim>
					<dim>1</dim>
					<dim>1</dim>
					<dim>1</dim>
				</port>
			</output>
		</layer>
		<layer id="246" name="403/fq_weights_1" type="FakeQuantize" version="opset1">
			<data levels="255"/>
			<input>
				<port id="0">
					<dim>192</dim>
					<dim>1</dim>
					<dim>3</dim>
					<dim>3</dim>
				</port>
				<port id="1">
					<dim>1</dim>
				</port>
				<port id="2">
					<dim>1</dim>
				</port>
				<port id="3">
					<dim>192</dim>
					<dim>1</dim>
					<dim>1</dim>
					<dim>1</dim>
				</port>
				<port id="4">
					<dim>192</dim>
					<dim>1</dim>
					<dim>1</dim>
					<dim>1</dim>
				</port>
			</input>
			<output>
				<port id="5" precision="FP16">
					<dim>192</dim>
					<dim>1</dim>
					<dim>3</dim>
					<dim>3</dim>
				</port>
			</output>
		</layer>
		<layer id="247" name="21839/value21841_const" type="Const" version="opset1">
			<data element_type="i64" offset="42810" shape="5" size="40"/>
			<output>
				<port id="1" precision="I64">
					<dim>5</dim>
				</port>
			</output>
		</layer>
		<layer id="248" name="21839" type="Reshape" version="opset1">
			<data special_zero="True"/>
			<input>
				<port id="0">
					<dim>192</dim>
					<dim>1</dim>
					<dim>3</dim>
					<dim>3</dim>
				</port>
				<port id="1">
					<dim>5</dim>
				</port>
			</input>
			<output>
				<port id="2" precision="FP16">
					<dim>192</dim>
					<dim>1</dim>
					<dim>1</dim>
					<dim>3</dim>
					<dim>3</dim>
				</port>
			</output>
		</layer>
		<layer id="249" name="403" type="GroupConvolution" version="opset1">
			<data dilations="1,1" output_padding="0,0" pads_begin="1,1" pads_end="1,1" strides="1,1"/>
			<input>
				<port id="0">
					<dim>1</dim>
					<dim>192</dim>
					<dim>88</dim>
					<dim>88</dim>
				</port>
				<port id="1">
					<dim>192</dim>
					<dim>1</dim>
					<dim>1</dim>
					<dim>3</dim>
					<dim>3</dim>
				</port>
			</input>
			<output>
				<port id="2" precision="FP16">
					<dim>1</dim>
					<dim>192</dim>
					<dim>88</dim>
					<dim>88</dim>
				</port>
			</output>
		</layer>
		<layer id="250" name="data_add_299272993231073/EltwiseUnsqueeze31737_const1803_const" type="Const" version="opset1">
			<data element_type="f16" offset="42850" shape="1,192,1,1" size="384"/>
			<output>
				<port id="1" precision="FP16">
					<dim>1</dim>
					<dim>192</dim>
					<dim>1</dim>
					<dim>1</dim>
				</port>
			</output>
		</layer>
		<layer id="251" name="404/variance/Fused_Add_" type="Add" version="opset1">
			<input>
				<port id="0">
					<dim>1</dim>
					<dim>192</dim>
					<dim>88</dim>
					<dim>88</dim>
				</port>
				<port id="1">
					<dim>1</dim>
					<dim>192</dim>
					<dim>1</dim>
					<dim>1</dim>
				</port>
			</input>
			<output>
				<port id="2" precision="FP16">
					<dim>1</dim>
					<dim>192</dim>
					<dim>88</dim>
					<dim>88</dim>
				</port>
			</output>
		</layer>
		<layer id="252" name="405" type="Clamp" version="opset1">
			<data max="6.0" min="0.0"/>
			<input>
				<port id="0">
					<dim>1</dim>
					<dim>192</dim>
					<dim>88</dim>
					<dim>88</dim>
				</port>
			</input>
			<output>
				<port id="1" precision="FP16">
					<dim>1</dim>
					<dim>192</dim>
					<dim>88</dim>
					<dim>88</dim>
				</port>
			</output>
		</layer>
		<layer id="253" name="61186122_const" type="Const" version="opset1">
			<data element_type="f16" offset="0" shape="" size="2"/>
			<output>
				<port id="1" precision="FP16"/>
			</output>
		</layer>
		<layer id="254" name="61196123_const" type="Const" version="opset1">
			<data element_type="f16" offset="43234" shape="" size="2"/>
			<output>
				<port id="1" precision="FP16"/>
			</output>
		</layer>
		<layer id="255" name="61206124_const" type="Const" version="opset1">
			<data element_type="f16" offset="0" shape="" size="2"/>
			<output>
				<port id="1" precision="FP16"/>
			</output>
		</layer>
		<layer id="256" name="61216125_const" type="Const" version="opset1">
			<data element_type="f16" offset="43234" shape="" size="2"/>
			<output>
				<port id="1" precision="FP16"/>
			</output>
		</layer>
		<layer id="257" name="406/fq_input_0" type="FakeQuantize" version="opset1">
			<data levels="256"/>
			<input>
				<port id="0">
					<dim>1</dim>
					<dim>192</dim>
					<dim>88</dim>
					<dim>88</dim>
				</port>
				<port id="1"/>
				<port id="2"/>
				<port id="3"/>
				<port id="4"/>
			</input>
			<output>
				<port id="5" precision="FP16">
					<dim>1</dim>
					<dim>192</dim>
					<dim>88</dim>
					<dim>88</dim>
				</port>
			</output>
		</layer>
		<layer id="258" name="406/fq_weights_1/Convert_to_float/Cast_019552_const" type="Const" version="opset1">
			<data element_type="u8" offset="43236" shape="32,192,1,1" size="6144"/>
			<output>
				<port id="1" precision="U8">
					<dim>32</dim>
					<dim>192</dim>
					<dim>1</dim>
					<dim>1</dim>
				</port>
			</output>
		</layer>
		<layer id="259" name="406/fq_weights_1/Convert_to_float" type="Convert" version="opset1">
			<data destination_type="f16"/>
			<input>
				<port id="0">
					<dim>32</dim>
					<dim>192</dim>
					<dim>1</dim>
					<dim>1</dim>
				</port>
			</input>
			<output>
				<port id="1" precision="FP16">
					<dim>32</dim>
					<dim>192</dim>
					<dim>1</dim>
					<dim>1</dim>
				</port>
			</output>
		</layer>
		<layer id="260" name="406/fq_weights_1/Copy/out_low16488_const" type="Const" version="opset1">
			<data element_type="f16" offset="0" shape="1" size="2"/>
			<output>
				<port id="1" precision="FP16">
					<dim>1</dim>
				</port>
			</output>
		</layer>
		<layer id="261" name="406/fq_weights_1/Copy/out_high16489_const" type="Const" version="opset1">
			<data element_type="f16" offset="868" shape="1" size="2"/>
			<output>
				<port id="1" precision="FP16">
					<dim>1</dim>
				</port>
			</output>
		</layer>
		<layer id="262" name="61306134_const" type="Const" version="opset1">
			<data element_type="f16" offset="49380" shape="32,1,1,1" size="64"/>
			<output>
				<port id="1" precision="FP16">
					<dim>32</dim>
					<dim>1</dim>
					<dim>1</dim>
					<dim>1</dim>
				</port>
			</output>
		</layer>
		<layer id="263" name="61316135_const" type="Const" version="opset1">
			<data element_type="f16" offset="49444" shape="32,1,1,1" size="64"/>
			<output>
				<port id="1" precision="FP16">
					<dim>32</dim>
					<dim>1</dim>
					<dim>1</dim>
					<dim>1</dim>
				</port>
			</output>
		</layer>
		<layer id="264" name="406/fq_weights_1" type="FakeQuantize" version="opset1">
			<data levels="255"/>
			<input>
				<port id="0">
					<dim>32</dim>
					<dim>192</dim>
					<dim>1</dim>
					<dim>1</dim>
				</port>
				<port id="1">
					<dim>1</dim>
				</port>
				<port id="2">
					<dim>1</dim>
				</port>
				<port id="3">
					<dim>32</dim>
					<dim>1</dim>
					<dim>1</dim>
					<dim>1</dim>
				</port>
				<port id="4">
					<dim>32</dim>
					<dim>1</dim>
					<dim>1</dim>
					<dim>1</dim>
				</port>
			</input>
			<output>
				<port id="5" precision="FP16">
					<dim>32</dim>
					<dim>192</dim>
					<dim>1</dim>
					<dim>1</dim>
				</port>
			</output>
		</layer>
		<layer id="265" name="406" type="Convolution" version="opset1">
			<data dilations="1,1" output_padding="0,0" pads_begin="0,0" pads_end="0,0" strides="1,1"/>
			<input>
				<port id="0">
					<dim>1</dim>
					<dim>192</dim>
					<dim>88</dim>
					<dim>88</dim>
				</port>
				<port id="1">
					<dim>32</dim>
					<dim>192</dim>
					<dim>1</dim>
					<dim>1</dim>
				</port>
			</input>
			<output>
				<port id="2" precision="FP16">
					<dim>1</dim>
					<dim>32</dim>
					<dim>88</dim>
					<dim>88</dim>
				</port>
			</output>
		</layer>
		<layer id="266" name="data_add_299352994031075/EltwiseUnsqueeze31745_const1808_const" type="Const" version="opset1">
			<data element_type="f16" offset="49508" shape="1,32,1,1" size="64"/>
			<output>
				<port id="1" precision="FP16">
					<dim>1</dim>
					<dim>32</dim>
					<dim>1</dim>
					<dim>1</dim>
				</port>
			</output>
		</layer>
		<layer id="267" name="407/variance/Fused_Add_" type="Add" version="opset1">
			<input>
				<port id="0">
					<dim>1</dim>
					<dim>32</dim>
					<dim>88</dim>
					<dim>88</dim>
				</port>
				<port id="1">
					<dim>1</dim>
					<dim>32</dim>
					<dim>1</dim>
					<dim>1</dim>
				</port>
			</input>
			<output>
				<port id="2" precision="FP16">
					<dim>1</dim>
					<dim>32</dim>
					<dim>88</dim>
					<dim>88</dim>
				</port>
			</output>
		</layer>
		<layer id="268" name="70287032_const" type="Const" version="opset1">
			<data element_type="f16" offset="49572" shape="" size="2"/>
			<output>
				<port id="1" precision="FP16"/>
			</output>
		</layer>
		<layer id="269" name="70297033_const" type="Const" version="opset1">
			<data element_type="f16" offset="49574" shape="" size="2"/>
			<output>
				<port id="1" precision="FP16"/>
			</output>
		</layer>
		<layer id="270" name="70307034_const" type="Const" version="opset1">
			<data element_type="f16" offset="49572" shape="" size="2"/>
			<output>
				<port id="1" precision="FP16"/>
			</output>
		</layer>
		<layer id="271" name="70317035_const" type="Const" version="opset1">
			<data element_type="f16" offset="49574" shape="" size="2"/>
			<output>
				<port id="1" precision="FP16"/>
			</output>
		</layer>
		<layer id="272" name="408/fq_input_0" type="FakeQuantize" version="opset1">
			<data levels="256"/>
			<input>
				<port id="0">
					<dim>1</dim>
					<dim>32</dim>
					<dim>88</dim>
					<dim>88</dim>
				</port>
				<port id="1"/>
				<port id="2"/>
				<port id="3"/>
				<port id="4"/>
			</input>
			<output>
				<port id="5" precision="FP16">
					<dim>1</dim>
					<dim>32</dim>
					<dim>88</dim>
					<dim>88</dim>
				</port>
			</output>
		</layer>
		<layer id="273" name="408" type="Add" version="opset1">
			<input>
				<port id="0">
					<dim>1</dim>
					<dim>32</dim>
					<dim>88</dim>
					<dim>88</dim>
				</port>
				<port id="1">
					<dim>1</dim>
					<dim>32</dim>
					<dim>88</dim>
					<dim>88</dim>
				</port>
			</input>
			<output>
				<port id="2" precision="FP16">
					<dim>1</dim>
					<dim>32</dim>
					<dim>88</dim>
					<dim>88</dim>
				</port>
			</output>
		</layer>
		<layer id="274" name="60686072_const" type="Const" version="opset1">
			<data element_type="f16" offset="49576" shape="" size="2"/>
			<output>
				<port id="1" precision="FP16"/>
			</output>
		</layer>
		<layer id="275" name="60696073_const" type="Const" version="opset1">
			<data element_type="f16" offset="49578" shape="" size="2"/>
			<output>
				<port id="1" precision="FP16"/>
			</output>
		</layer>
		<layer id="276" name="60706074_const" type="Const" version="opset1">
			<data element_type="f16" offset="49576" shape="" size="2"/>
			<output>
				<port id="1" precision="FP16"/>
			</output>
		</layer>
		<layer id="277" name="60716075_const" type="Const" version="opset1">
			<data element_type="f16" offset="49578" shape="" size="2"/>
			<output>
				<port id="1" precision="FP16"/>
			</output>
		</layer>
		<layer id="278" name="409/fq_input_0" type="FakeQuantize" version="opset1">
			<data levels="256"/>
			<input>
				<port id="0">
					<dim>1</dim>
					<dim>32</dim>
					<dim>88</dim>
					<dim>88</dim>
				</port>
				<port id="1"/>
				<port id="2"/>
				<port id="3"/>
				<port id="4"/>
			</input>
			<output>
				<port id="5" precision="FP16">
					<dim>1</dim>
					<dim>32</dim>
					<dim>88</dim>
					<dim>88</dim>
				</port>
			</output>
		</layer>
		<layer id="279" name="409/fq_weights_1/Convert_to_float/Cast_019400_const" type="Const" version="opset1">
			<data element_type="u8" offset="49580" shape="192,32,1,1" size="6144"/>
			<output>
				<port id="1" precision="U8">
					<dim>192</dim>
					<dim>32</dim>
					<dim>1</dim>
					<dim>1</dim>
				</port>
			</output>
		</layer>
		<layer id="280" name="409/fq_weights_1/Convert_to_float" type="Convert" version="opset1">
			<data destination_type="f16"/>
			<input>
				<port id="0">
					<dim>192</dim>
					<dim>32</dim>
					<dim>1</dim>
					<dim>1</dim>
				</port>
			</input>
			<output>
				<port id="1" precision="FP16">
					<dim>192</dim>
					<dim>32</dim>
					<dim>1</dim>
					<dim>1</dim>
				</port>
			</output>
		</layer>
		<layer id="281" name="409/fq_weights_1/Copy/out_low17248_const" type="Const" version="opset1">
			<data element_type="f16" offset="0" shape="1" size="2"/>
			<output>
				<port id="1" precision="FP16">
					<dim>1</dim>
				</port>
			</output>
		</layer>
		<layer id="282" name="409/fq_weights_1/Copy/out_high17249_const" type="Const" version="opset1">
			<data element_type="f16" offset="868" shape="1" size="2"/>
			<output>
				<port id="1" precision="FP16">
					<dim>1</dim>
				</port>
			</output>
		</layer>
		<layer id="283" name="60806084_const" type="Const" version="opset1">
			<data element_type="f16" offset="55724" shape="192,1,1,1" size="384"/>
			<output>
				<port id="1" precision="FP16">
					<dim>192</dim>
					<dim>1</dim>
					<dim>1</dim>
					<dim>1</dim>
				</port>
			</output>
		</layer>
		<layer id="284" name="60816085_const" type="Const" version="opset1">
			<data element_type="f16" offset="56108" shape="192,1,1,1" size="384"/>
			<output>
				<port id="1" precision="FP16">
					<dim>192</dim>
					<dim>1</dim>
					<dim>1</dim>
					<dim>1</dim>
				</port>
			</output>
		</layer>
		<layer id="285" name="409/fq_weights_1" type="FakeQuantize" version="opset1">
			<data levels="255"/>
			<input>
				<port id="0">
					<dim>192</dim>
					<dim>32</dim>
					<dim>1</dim>
					<dim>1</dim>
				</port>
				<port id="1">
					<dim>1</dim>
				</port>
				<port id="2">
					<dim>1</dim>
				</port>
				<port id="3">
					<dim>192</dim>
					<dim>1</dim>
					<dim>1</dim>
					<dim>1</dim>
				</port>
				<port id="4">
					<dim>192</dim>
					<dim>1</dim>
					<dim>1</dim>
					<dim>1</dim>
				</port>
			</input>
			<output>
				<port id="5" precision="FP16">
					<dim>192</dim>
					<dim>32</dim>
					<dim>1</dim>
					<dim>1</dim>
				</port>
			</output>
		</layer>
		<layer id="286" name="409" type="Convolution" version="opset1">
			<data dilations="1,1" output_padding="0,0" pads_begin="0,0" pads_end="0,0" strides="1,1"/>
			<input>
				<port id="0">
					<dim>1</dim>
					<dim>32</dim>
					<dim>88</dim>
					<dim>88</dim>
				</port>
				<port id="1">
					<dim>192</dim>
					<dim>32</dim>
					<dim>1</dim>
					<dim>1</dim>
				</port>
			</input>
			<output>
				<port id="2" precision="FP16">
					<dim>1</dim>
					<dim>192</dim>
					<dim>88</dim>
					<dim>88</dim>
				</port>
			</output>
		</layer>
		<layer id="287" name="data_add_299432994831077/EltwiseUnsqueeze31753_const1813_const" type="Const" version="opset1">
			<data element_type="f16" offset="56492" shape="1,192,1,1" size="384"/>
			<output>
				<port id="1" precision="FP16">
					<dim>1</dim>
					<dim>192</dim>
					<dim>1</dim>
					<dim>1</dim>
				</port>
			</output>
		</layer>
		<layer id="288" name="410/variance/Fused_Add_" type="Add" version="opset1">
			<input>
				<port id="0">
					<dim>1</dim>
					<dim>192</dim>
					<dim>88</dim>
					<dim>88</dim>
				</port>
				<port id="1">
					<dim>1</dim>
					<dim>192</dim>
					<dim>1</dim>
					<dim>1</dim>
				</port>
			</input>
			<output>
				<port id="2" precision="FP16">
					<dim>1</dim>
					<dim>192</dim>
					<dim>88</dim>
					<dim>88</dim>
				</port>
			</output>
		</layer>
		<layer id="289" name="411" type="Clamp" version="opset1">
			<data max="6.0" min="0.0"/>
			<input>
				<port id="0">
					<dim>1</dim>
					<dim>192</dim>
					<dim>88</dim>
					<dim>88</dim>
				</port>
			</input>
			<output>
				<port id="1" precision="FP16">
					<dim>1</dim>
					<dim>192</dim>
					<dim>88</dim>
					<dim>88</dim>
				</port>
			</output>
		</layer>
		<layer id="290" name="70487052_const" type="Const" version="opset1">
			<data element_type="f16" offset="39546" shape="1,192,1,1" size="384"/>
			<output>
				<port id="1" precision="FP16">
					<dim>1</dim>
					<dim>192</dim>
					<dim>1</dim>
					<dim>1</dim>
				</port>
			</output>
		</layer>
		<layer id="291" name="70497053_const" type="Const" version="opset1">
			<data element_type="f16" offset="56876" shape="1,192,1,1" size="384"/>
			<output>
				<port id="1" precision="FP16">
					<dim>1</dim>
					<dim>192</dim>
					<dim>1</dim>
					<dim>1</dim>
				</port>
			</output>
		</layer>
		<layer id="292" name="70507054_const" type="Const" version="opset1">
			<data element_type="f16" offset="39546" shape="1,192,1,1" size="384"/>
			<output>
				<port id="1" precision="FP16">
					<dim>1</dim>
					<dim>192</dim>
					<dim>1</dim>
					<dim>1</dim>
				</port>
			</output>
		</layer>
		<layer id="293" name="70517055_const" type="Const" version="opset1">
			<data element_type="f16" offset="56876" shape="1,192,1,1" size="384"/>
			<output>
				<port id="1" precision="FP16">
					<dim>1</dim>
					<dim>192</dim>
					<dim>1</dim>
					<dim>1</dim>
				</port>
			</output>
		</layer>
		<layer id="294" name="412/fq_input_0" type="FakeQuantize" version="opset1">
			<data levels="256"/>
			<input>
				<port id="0">
					<dim>1</dim>
					<dim>192</dim>
					<dim>88</dim>
					<dim>88</dim>
				</port>
				<port id="1">
					<dim>1</dim>
					<dim>192</dim>
					<dim>1</dim>
					<dim>1</dim>
				</port>
				<port id="2">
					<dim>1</dim>
					<dim>192</dim>
					<dim>1</dim>
					<dim>1</dim>
				</port>
				<port id="3">
					<dim>1</dim>
					<dim>192</dim>
					<dim>1</dim>
					<dim>1</dim>
				</port>
				<port id="4">
					<dim>1</dim>
					<dim>192</dim>
					<dim>1</dim>
					<dim>1</dim>
				</port>
			</input>
			<output>
				<port id="5" precision="FP16">
					<dim>1</dim>
					<dim>192</dim>
					<dim>88</dim>
					<dim>88</dim>
				</port>
			</output>
		</layer>
		<layer id="295" name="412/fq_weights_1/Convert_to_float/Cast_019182_const" type="Const" version="opset1">
			<data element_type="u8" offset="57260" shape="192,1,3,3" size="1728"/>
			<output>
				<port id="1" precision="U8">
					<dim>192</dim>
					<dim>1</dim>
					<dim>3</dim>
					<dim>3</dim>
				</port>
			</output>
		</layer>
		<layer id="296" name="412/fq_weights_1/Convert_to_float" type="Convert" version="opset1">
			<data destination_type="f16"/>
			<input>
				<port id="0">
					<dim>192</dim>
					<dim>1</dim>
					<dim>3</dim>
					<dim>3</dim>
				</port>
			</input>
			<output>
				<port id="1" precision="FP16">
					<dim>192</dim>
					<dim>1</dim>
					<dim>3</dim>
					<dim>3</dim>
				</port>
			</output>
		</layer>
		<layer id="297" name="412/fq_weights_1/Copy/out_low16552_const" type="Const" version="opset1">
			<data element_type="f16" offset="0" shape="1" size="2"/>
			<output>
				<port id="1" precision="FP16">
					<dim>1</dim>
				</port>
			</output>
		</layer>
		<layer id="298" name="412/fq_weights_1/Copy/out_high16553_const" type="Const" version="opset1">
			<data element_type="f16" offset="868" shape="1" size="2"/>
			<output>
				<port id="1" precision="FP16">
					<dim>1</dim>
				</port>
			</output>
		</layer>
		<layer id="299" name="70607064_const" type="Const" version="opset1">
			<data element_type="f16" offset="58988" shape="192,1,1,1" size="384"/>
			<output>
				<port id="1" precision="FP16">
					<dim>192</dim>
					<dim>1</dim>
					<dim>1</dim>
					<dim>1</dim>
				</port>
			</output>
		</layer>
		<layer id="300" name="70617065_const" type="Const" version="opset1">
			<data element_type="f16" offset="59372" shape="192,1,1,1" size="384"/>
			<output>
				<port id="1" precision="FP16">
					<dim>192</dim>
					<dim>1</dim>
					<dim>1</dim>
					<dim>1</dim>
				</port>
			</output>
		</layer>
		<layer id="301" name="412/fq_weights_1" type="FakeQuantize" version="opset1">
			<data levels="255"/>
			<input>
				<port id="0">
					<dim>192</dim>
					<dim>1</dim>
					<dim>3</dim>
					<dim>3</dim>
				</port>
				<port id="1">
					<dim>1</dim>
				</port>
				<port id="2">
					<dim>1</dim>
				</port>
				<port id="3">
					<dim>192</dim>
					<dim>1</dim>
					<dim>1</dim>
					<dim>1</dim>
				</port>
				<port id="4">
					<dim>192</dim>
					<dim>1</dim>
					<dim>1</dim>
					<dim>1</dim>
				</port>
			</input>
			<output>
				<port id="5" precision="FP16">
					<dim>192</dim>
					<dim>1</dim>
					<dim>3</dim>
					<dim>3</dim>
				</port>
			</output>
		</layer>
		<layer id="302" name="21823/value21825_const" type="Const" version="opset1">
			<data element_type="i64" offset="42810" shape="5" size="40"/>
			<output>
				<port id="1" precision="I64">
					<dim>5</dim>
				</port>
			</output>
		</layer>
		<layer id="303" name="21823" type="Reshape" version="opset1">
			<data special_zero="True"/>
			<input>
				<port id="0">
					<dim>192</dim>
					<dim>1</dim>
					<dim>3</dim>
					<dim>3</dim>
				</port>
				<port id="1">
					<dim>5</dim>
				</port>
			</input>
			<output>
				<port id="2" precision="FP16">
					<dim>192</dim>
					<dim>1</dim>
					<dim>1</dim>
					<dim>3</dim>
					<dim>3</dim>
				</port>
			</output>
		</layer>
		<layer id="304" name="412" type="GroupConvolution" version="opset1">
			<data dilations="1,1" output_padding="0,0" pads_begin="1,1" pads_end="1,1" strides="1,1"/>
			<input>
				<port id="0">
					<dim>1</dim>
					<dim>192</dim>
					<dim>88</dim>
					<dim>88</dim>
				</port>
				<port id="1">
					<dim>192</dim>
					<dim>1</dim>
					<dim>1</dim>
					<dim>3</dim>
					<dim>3</dim>
				</port>
			</input>
			<output>
				<port id="2" precision="FP16">
					<dim>1</dim>
					<dim>192</dim>
					<dim>88</dim>
					<dim>88</dim>
				</port>
			</output>
		</layer>
		<layer id="305" name="data_add_299512995631079/EltwiseUnsqueeze31761_const1818_const" type="Const" version="opset1">
			<data element_type="f16" offset="59756" shape="1,192,1,1" size="384"/>
			<output>
				<port id="1" precision="FP16">
					<dim>1</dim>
					<dim>192</dim>
					<dim>1</dim>
					<dim>1</dim>
				</port>
			</output>
		</layer>
		<layer id="306" name="413/variance/Fused_Add_" type="Add" version="opset1">
			<input>
				<port id="0">
					<dim>1</dim>
					<dim>192</dim>
					<dim>88</dim>
					<dim>88</dim>
				</port>
				<port id="1">
					<dim>1</dim>
					<dim>192</dim>
					<dim>1</dim>
					<dim>1</dim>
				</port>
			</input>
			<output>
				<port id="2" precision="FP16">
					<dim>1</dim>
					<dim>192</dim>
					<dim>88</dim>
					<dim>88</dim>
				</port>
			</output>
		</layer>
		<layer id="307" name="414" type="Clamp" version="opset1">
			<data max="6.0" min="0.0"/>
			<input>
				<port id="0">
					<dim>1</dim>
					<dim>192</dim>
					<dim>88</dim>
					<dim>88</dim>
				</port>
			</input>
			<output>
				<port id="1" precision="FP16">
					<dim>1</dim>
					<dim>192</dim>
					<dim>88</dim>
					<dim>88</dim>
				</port>
			</output>
		</layer>
		<layer id="308" name="66186622_const" type="Const" version="opset1">
			<data element_type="f16" offset="0" shape="" size="2"/>
			<output>
				<port id="1" precision="FP16"/>
			</output>
		</layer>
		<layer id="309" name="66196623_const" type="Const" version="opset1">
			<data element_type="f16" offset="60140" shape="" size="2"/>
			<output>
				<port id="1" precision="FP16"/>
			</output>
		</layer>
		<layer id="310" name="66206624_const" type="Const" version="opset1">
			<data element_type="f16" offset="0" shape="" size="2"/>
			<output>
				<port id="1" precision="FP16"/>
			</output>
		</layer>
		<layer id="311" name="66216625_const" type="Const" version="opset1">
			<data element_type="f16" offset="60140" shape="" size="2"/>
			<output>
				<port id="1" precision="FP16"/>
			</output>
		</layer>
		<layer id="312" name="415/fq_input_0" type="FakeQuantize" version="opset1">
			<data levels="256"/>
			<input>
				<port id="0">
					<dim>1</dim>
					<dim>192</dim>
					<dim>88</dim>
					<dim>88</dim>
				</port>
				<port id="1"/>
				<port id="2"/>
				<port id="3"/>
				<port id="4"/>
			</input>
			<output>
				<port id="5" precision="FP16">
					<dim>1</dim>
					<dim>192</dim>
					<dim>88</dim>
					<dim>88</dim>
				</port>
			</output>
		</layer>
		<layer id="313" name="415/fq_weights_1/Convert_to_float/Cast_019810_const" type="Const" version="opset1">
			<data element_type="u8" offset="60142" shape="32,192,1,1" size="6144"/>
			<output>
				<port id="1" precision="U8">
					<dim>32</dim>
					<dim>192</dim>
					<dim>1</dim>
					<dim>1</dim>
				</port>
			</output>
		</layer>
		<layer id="314" name="415/fq_weights_1/Convert_to_float" type="Convert" version="opset1">
			<data destination_type="f16"/>
			<input>
				<port id="0">
					<dim>32</dim>
					<dim>192</dim>
					<dim>1</dim>
					<dim>1</dim>
				</port>
			</input>
			<output>
				<port id="1" precision="FP16">
					<dim>32</dim>
					<dim>192</dim>
					<dim>1</dim>
					<dim>1</dim>
				</port>
			</output>
		</layer>
		<layer id="315" name="415/fq_weights_1/Copy/out_low16952_const" type="Const" version="opset1">
			<data element_type="f16" offset="0" shape="1" size="2"/>
			<output>
				<port id="1" precision="FP16">
					<dim>1</dim>
				</port>
			</output>
		</layer>
		<layer id="316" name="415/fq_weights_1/Copy/out_high16953_const" type="Const" version="opset1">
			<data element_type="f16" offset="868" shape="1" size="2"/>
			<output>
				<port id="1" precision="FP16">
					<dim>1</dim>
				</port>
			</output>
		</layer>
		<layer id="317" name="66306634_const" type="Const" version="opset1">
			<data element_type="f16" offset="66286" shape="32,1,1,1" size="64"/>
			<output>
				<port id="1" precision="FP16">
					<dim>32</dim>
					<dim>1</dim>
					<dim>1</dim>
					<dim>1</dim>
				</port>
			</output>
		</layer>
		<layer id="318" name="66316635_const" type="Const" version="opset1">
			<data element_type="f16" offset="66350" shape="32,1,1,1" size="64"/>
			<output>
				<port id="1" precision="FP16">
					<dim>32</dim>
					<dim>1</dim>
					<dim>1</dim>
					<dim>1</dim>
				</port>
			</output>
		</layer>
		<layer id="319" name="415/fq_weights_1" type="FakeQuantize" version="opset1">
			<data levels="255"/>
			<input>
				<port id="0">
					<dim>32</dim>
					<dim>192</dim>
					<dim>1</dim>
					<dim>1</dim>
				</port>
				<port id="1">
					<dim>1</dim>
				</port>
				<port id="2">
					<dim>1</dim>
				</port>
				<port id="3">
					<dim>32</dim>
					<dim>1</dim>
					<dim>1</dim>
					<dim>1</dim>
				</port>
				<port id="4">
					<dim>32</dim>
					<dim>1</dim>
					<dim>1</dim>
					<dim>1</dim>
				</port>
			</input>
			<output>
				<port id="5" precision="FP16">
					<dim>32</dim>
					<dim>192</dim>
					<dim>1</dim>
					<dim>1</dim>
				</port>
			</output>
		</layer>
		<layer id="320" name="415" type="Convolution" version="opset1">
			<data dilations="1,1" output_padding="0,0" pads_begin="0,0" pads_end="0,0" strides="1,1"/>
			<input>
				<port id="0">
					<dim>1</dim>
					<dim>192</dim>
					<dim>88</dim>
					<dim>88</dim>
				</port>
				<port id="1">
					<dim>32</dim>
					<dim>192</dim>
					<dim>1</dim>
					<dim>1</dim>
				</port>
			</input>
			<output>
				<port id="2" precision="FP16">
					<dim>1</dim>
					<dim>32</dim>
					<dim>88</dim>
					<dim>88</dim>
				</port>
			</output>
		</layer>
		<layer id="321" name="data_add_299592996431081/EltwiseUnsqueeze31769_const1823_const" type="Const" version="opset1">
			<data element_type="f16" offset="66414" shape="1,32,1,1" size="64"/>
			<output>
				<port id="1" precision="FP16">
					<dim>1</dim>
					<dim>32</dim>
					<dim>1</dim>
					<dim>1</dim>
				</port>
			</output>
		</layer>
		<layer id="322" name="416/variance/Fused_Add_" type="Add" version="opset1">
			<input>
				<port id="0">
					<dim>1</dim>
					<dim>32</dim>
					<dim>88</dim>
					<dim>88</dim>
				</port>
				<port id="1">
					<dim>1</dim>
					<dim>32</dim>
					<dim>1</dim>
					<dim>1</dim>
				</port>
			</input>
			<output>
				<port id="2" precision="FP16">
					<dim>1</dim>
					<dim>32</dim>
					<dim>88</dim>
					<dim>88</dim>
				</port>
			</output>
		</layer>
		<layer id="323" name="63586362_const" type="Const" version="opset1">
			<data element_type="f16" offset="66478" shape="" size="2"/>
			<output>
				<port id="1" precision="FP16"/>
			</output>
		</layer>
		<layer id="324" name="63596363_const" type="Const" version="opset1">
			<data element_type="f16" offset="66480" shape="" size="2"/>
			<output>
				<port id="1" precision="FP16"/>
			</output>
		</layer>
		<layer id="325" name="63606364_const" type="Const" version="opset1">
			<data element_type="f16" offset="66478" shape="" size="2"/>
			<output>
				<port id="1" precision="FP16"/>
			</output>
		</layer>
		<layer id="326" name="63616365_const" type="Const" version="opset1">
			<data element_type="f16" offset="66480" shape="" size="2"/>
			<output>
				<port id="1" precision="FP16"/>
			</output>
		</layer>
		<layer id="327" name="417/fq_input_0" type="FakeQuantize" version="opset1">
			<data levels="256"/>
			<input>
				<port id="0">
					<dim>1</dim>
					<dim>32</dim>
					<dim>88</dim>
					<dim>88</dim>
				</port>
				<port id="1"/>
				<port id="2"/>
				<port id="3"/>
				<port id="4"/>
			</input>
			<output>
				<port id="5" precision="FP16">
					<dim>1</dim>
					<dim>32</dim>
					<dim>88</dim>
					<dim>88</dim>
				</port>
			</output>
		</layer>
		<layer id="328" name="417" type="Add" version="opset1">
			<input>
				<port id="0">
					<dim>1</dim>
					<dim>32</dim>
					<dim>88</dim>
					<dim>88</dim>
				</port>
				<port id="1">
					<dim>1</dim>
					<dim>32</dim>
					<dim>88</dim>
					<dim>88</dim>
				</port>
			</input>
			<output>
				<port id="2" precision="FP16">
					<dim>1</dim>
					<dim>32</dim>
					<dim>88</dim>
					<dim>88</dim>
				</port>
			</output>
		</layer>
		<layer id="329" name="84488452_const" type="Const" version="opset1">
			<data element_type="f16" offset="66482" shape="" size="2"/>
			<output>
				<port id="1" precision="FP16"/>
			</output>
		</layer>
		<layer id="330" name="84498453_const" type="Const" version="opset1">
			<data element_type="f16" offset="66484" shape="" size="2"/>
			<output>
				<port id="1" precision="FP16"/>
			</output>
		</layer>
		<layer id="331" name="84508454_const" type="Const" version="opset1">
			<data element_type="f16" offset="66482" shape="" size="2"/>
			<output>
				<port id="1" precision="FP16"/>
			</output>
		</layer>
		<layer id="332" name="84518455_const" type="Const" version="opset1">
			<data element_type="f16" offset="66484" shape="" size="2"/>
			<output>
				<port id="1" precision="FP16"/>
			</output>
		</layer>
		<layer id="333" name="418/fq_input_0" type="FakeQuantize" version="opset1">
			<data levels="256"/>
			<input>
				<port id="0">
					<dim>1</dim>
					<dim>32</dim>
					<dim>88</dim>
					<dim>88</dim>
				</port>
				<port id="1"/>
				<port id="2"/>
				<port id="3"/>
				<port id="4"/>
			</input>
			<output>
				<port id="5" precision="FP16">
					<dim>1</dim>
					<dim>32</dim>
					<dim>88</dim>
					<dim>88</dim>
				</port>
			</output>
		</layer>
		<layer id="334" name="513/WithoutBiases/fq_weights_1/Convert_to_float/Cast_019828_const" type="Const" version="opset1">
			<data element_type="u8" offset="66486" shape="32,32,1,1" size="1024"/>
			<output>
				<port id="1" precision="U8">
					<dim>32</dim>
					<dim>32</dim>
					<dim>1</dim>
					<dim>1</dim>
				</port>
			</output>
		</layer>
		<layer id="335" name="513/WithoutBiases/fq_weights_1/Convert_to_float" type="Convert" version="opset1">
			<data destination_type="f16"/>
			<input>
				<port id="0">
					<dim>32</dim>
					<dim>32</dim>
					<dim>1</dim>
					<dim>1</dim>
				</port>
			</input>
			<output>
				<port id="1" precision="FP16">
					<dim>32</dim>
					<dim>32</dim>
					<dim>1</dim>
					<dim>1</dim>
				</port>
			</output>
		</layer>
		<layer id="336" name="513/WithoutBiases/fq_weights_1/Copy/out_low16560_const" type="Const" version="opset1">
			<data element_type="f16" offset="0" shape="1" size="2"/>
			<output>
				<port id="1" precision="FP16">
					<dim>1</dim>
				</port>
			</output>
		</layer>
		<layer id="337" name="513/WithoutBiases/fq_weights_1/Copy/out_high16561_const" type="Const" version="opset1">
			<data element_type="f16" offset="868" shape="1" size="2"/>
			<output>
				<port id="1" precision="FP16">
					<dim>1</dim>
				</port>
			</output>
		</layer>
		<layer id="338" name="83208324_const" type="Const" version="opset1">
			<data element_type="f16" offset="67510" shape="32,1,1,1" size="64"/>
			<output>
				<port id="1" precision="FP16">
					<dim>32</dim>
					<dim>1</dim>
					<dim>1</dim>
					<dim>1</dim>
				</port>
			</output>
		</layer>
		<layer id="339" name="83218325_const" type="Const" version="opset1">
			<data element_type="f16" offset="67574" shape="32,1,1,1" size="64"/>
			<output>
				<port id="1" precision="FP16">
					<dim>32</dim>
					<dim>1</dim>
					<dim>1</dim>
					<dim>1</dim>
				</port>
			</output>
		</layer>
		<layer id="340" name="513/WithoutBiases/fq_weights_1" type="FakeQuantize" version="opset1">
			<data levels="255"/>
			<input>
				<port id="0">
					<dim>32</dim>
					<dim>32</dim>
					<dim>1</dim>
					<dim>1</dim>
				</port>
				<port id="1">
					<dim>1</dim>
				</port>
				<port id="2">
					<dim>1</dim>
				</port>
				<port id="3">
					<dim>32</dim>
					<dim>1</dim>
					<dim>1</dim>
					<dim>1</dim>
				</port>
				<port id="4">
					<dim>32</dim>
					<dim>1</dim>
					<dim>1</dim>
					<dim>1</dim>
				</port>
			</input>
			<output>
				<port id="5" precision="FP16">
					<dim>32</dim>
					<dim>32</dim>
					<dim>1</dim>
					<dim>1</dim>
				</port>
			</output>
		</layer>
		<layer id="341" name="513/WithoutBiases" type="Convolution" version="opset1">
			<data dilations="1,1" output_padding="0,0" pads_begin="0,0" pads_end="0,0" strides="1,1"/>
			<input>
				<port id="0">
					<dim>1</dim>
					<dim>32</dim>
					<dim>88</dim>
					<dim>88</dim>
				</port>
				<port id="1">
					<dim>32</dim>
					<dim>32</dim>
					<dim>1</dim>
					<dim>1</dim>
				</port>
			</input>
			<output>
				<port id="2" precision="FP16">
					<dim>1</dim>
					<dim>32</dim>
					<dim>88</dim>
					<dim>88</dim>
				</port>
			</output>
		</layer>
		<layer id="342" name="513/Dims1817131012/EltwiseUnsqueeze31549_const1828_const" type="Const" version="opset1">
			<data element_type="f16" offset="67638" shape="1,32,1,1" size="64"/>
			<output>
				<port id="1" precision="FP16">
					<dim>1</dim>
					<dim>32</dim>
					<dim>1</dim>
					<dim>1</dim>
				</port>
			</output>
		</layer>
		<layer id="343" name="513" type="Add" version="opset1">
			<input>
				<port id="0">
					<dim>1</dim>
					<dim>32</dim>
					<dim>88</dim>
					<dim>88</dim>
				</port>
				<port id="1">
					<dim>1</dim>
					<dim>32</dim>
					<dim>1</dim>
					<dim>1</dim>
				</port>
			</input>
			<output>
				<port id="2" precision="FP16">
					<dim>1</dim>
					<dim>32</dim>
					<dim>88</dim>
					<dim>88</dim>
				</port>
			</output>
		</layer>
		<layer id="344" name="72487252_const" type="Const" version="opset1">
			<data element_type="f16" offset="67702" shape="" size="2"/>
			<output>
				<port id="1" precision="FP16"/>
			</output>
		</layer>
		<layer id="345" name="72497253_const" type="Const" version="opset1">
			<data element_type="f16" offset="67704" shape="" size="2"/>
			<output>
				<port id="1" precision="FP16"/>
			</output>
		</layer>
		<layer id="346" name="72507254_const" type="Const" version="opset1">
			<data element_type="f16" offset="67702" shape="" size="2"/>
			<output>
				<port id="1" precision="FP16"/>
			</output>
		</layer>
		<layer id="347" name="72517255_const" type="Const" version="opset1">
			<data element_type="f16" offset="67704" shape="" size="2"/>
			<output>
				<port id="1" precision="FP16"/>
			</output>
		</layer>
		<layer id="348" name="557/fq_input_0" type="FakeQuantize" version="opset1">
			<data levels="256"/>
			<input>
				<port id="0">
					<dim>1</dim>
					<dim>32</dim>
					<dim>88</dim>
					<dim>88</dim>
				</port>
				<port id="1"/>
				<port id="2"/>
				<port id="3"/>
				<port id="4"/>
			</input>
			<output>
				<port id="5" precision="FP16">
					<dim>1</dim>
					<dim>32</dim>
					<dim>88</dim>
					<dim>88</dim>
				</port>
			</output>
		</layer>
		<layer id="349" name="418/fq_weights_1/Convert_to_float/Cast_019354_const" type="Const" version="opset1">
			<data element_type="u8" offset="67706" shape="192,32,1,1" size="6144"/>
			<output>
				<port id="1" precision="U8">
					<dim>192</dim>
					<dim>32</dim>
					<dim>1</dim>
					<dim>1</dim>
				</port>
			</output>
		</layer>
		<layer id="350" name="418/fq_weights_1/Convert_to_float" type="Convert" version="opset1">
			<data destination_type="f16"/>
			<input>
				<port id="0">
					<dim>192</dim>
					<dim>32</dim>
					<dim>1</dim>
					<dim>1</dim>
				</port>
			</input>
			<output>
				<port id="1" precision="FP16">
					<dim>192</dim>
					<dim>32</dim>
					<dim>1</dim>
					<dim>1</dim>
				</port>
			</output>
		</layer>
		<layer id="351" name="418/fq_weights_1/Copy/out_low17120_const" type="Const" version="opset1">
			<data element_type="f16" offset="0" shape="1" size="2"/>
			<output>
				<port id="1" precision="FP16">
					<dim>1</dim>
				</port>
			</output>
		</layer>
		<layer id="352" name="418/fq_weights_1/Copy/out_high17121_const" type="Const" version="opset1">
			<data element_type="f16" offset="868" shape="1" size="2"/>
			<output>
				<port id="1" precision="FP16">
					<dim>1</dim>
				</port>
			</output>
		</layer>
		<layer id="353" name="84608464_const" type="Const" version="opset1">
			<data element_type="f16" offset="73850" shape="192,1,1,1" size="384"/>
			<output>
				<port id="1" precision="FP16">
					<dim>192</dim>
					<dim>1</dim>
					<dim>1</dim>
					<dim>1</dim>
				</port>
			</output>
		</layer>
		<layer id="354" name="84618465_const" type="Const" version="opset1">
			<data element_type="f16" offset="74234" shape="192,1,1,1" size="384"/>
			<output>
				<port id="1" precision="FP16">
					<dim>192</dim>
					<dim>1</dim>
					<dim>1</dim>
					<dim>1</dim>
				</port>
			</output>
		</layer>
		<layer id="355" name="418/fq_weights_1" type="FakeQuantize" version="opset1">
			<data levels="255"/>
			<input>
				<port id="0">
					<dim>192</dim>
					<dim>32</dim>
					<dim>1</dim>
					<dim>1</dim>
				</port>
				<port id="1">
					<dim>1</dim>
				</port>
				<port id="2">
					<dim>1</dim>
				</port>
				<port id="3">
					<dim>192</dim>
					<dim>1</dim>
					<dim>1</dim>
					<dim>1</dim>
				</port>
				<port id="4">
					<dim>192</dim>
					<dim>1</dim>
					<dim>1</dim>
					<dim>1</dim>
				</port>
			</input>
			<output>
				<port id="5" precision="FP16">
					<dim>192</dim>
					<dim>32</dim>
					<dim>1</dim>
					<dim>1</dim>
				</port>
			</output>
		</layer>
		<layer id="356" name="418" type="Convolution" version="opset1">
			<data dilations="1,1" output_padding="0,0" pads_begin="0,0" pads_end="0,0" strides="1,1"/>
			<input>
				<port id="0">
					<dim>1</dim>
					<dim>32</dim>
					<dim>88</dim>
					<dim>88</dim>
				</port>
				<port id="1">
					<dim>192</dim>
					<dim>32</dim>
					<dim>1</dim>
					<dim>1</dim>
				</port>
			</input>
			<output>
				<port id="2" precision="FP16">
					<dim>1</dim>
					<dim>192</dim>
					<dim>88</dim>
					<dim>88</dim>
				</port>
			</output>
		</layer>
		<layer id="357" name="data_add_299672997231083/EltwiseUnsqueeze31777_const1832_const" type="Const" version="opset1">
			<data element_type="f16" offset="74618" shape="1,192,1,1" size="384"/>
			<output>
				<port id="1" precision="FP16">
					<dim>1</dim>
					<dim>192</dim>
					<dim>1</dim>
					<dim>1</dim>
				</port>
			</output>
		</layer>
		<layer id="358" name="419/variance/Fused_Add_" type="Add" version="opset1">
			<input>
				<port id="0">
					<dim>1</dim>
					<dim>192</dim>
					<dim>88</dim>
					<dim>88</dim>
				</port>
				<port id="1">
					<dim>1</dim>
					<dim>192</dim>
					<dim>1</dim>
					<dim>1</dim>
				</port>
			</input>
			<output>
				<port id="2" precision="FP16">
					<dim>1</dim>
					<dim>192</dim>
					<dim>88</dim>
					<dim>88</dim>
				</port>
			</output>
		</layer>
		<layer id="359" name="420" type="Clamp" version="opset1">
			<data max="6.0" min="0.0"/>
			<input>
				<port id="0">
					<dim>1</dim>
					<dim>192</dim>
					<dim>88</dim>
					<dim>88</dim>
				</port>
			</input>
			<output>
				<port id="1" precision="FP16">
					<dim>1</dim>
					<dim>192</dim>
					<dim>88</dim>
					<dim>88</dim>
				</port>
			</output>
		</layer>
		<layer id="360" name="74687472_const" type="Const" version="opset1">
			<data element_type="f16" offset="39546" shape="1,192,1,1" size="384"/>
			<output>
				<port id="1" precision="FP16">
					<dim>1</dim>
					<dim>192</dim>
					<dim>1</dim>
					<dim>1</dim>
				</port>
			</output>
		</layer>
		<layer id="361" name="74697473_const" type="Const" version="opset1">
			<data element_type="f16" offset="75002" shape="1,192,1,1" size="384"/>
			<output>
				<port id="1" precision="FP16">
					<dim>1</dim>
					<dim>192</dim>
					<dim>1</dim>
					<dim>1</dim>
				</port>
			</output>
		</layer>
		<layer id="362" name="74707474_const" type="Const" version="opset1">
			<data element_type="f16" offset="39546" shape="1,192,1,1" size="384"/>
			<output>
				<port id="1" precision="FP16">
					<dim>1</dim>
					<dim>192</dim>
					<dim>1</dim>
					<dim>1</dim>
				</port>
			</output>
		</layer>
		<layer id="363" name="74717475_const" type="Const" version="opset1">
			<data element_type="f16" offset="75002" shape="1,192,1,1" size="384"/>
			<output>
				<port id="1" precision="FP16">
					<dim>1</dim>
					<dim>192</dim>
					<dim>1</dim>
					<dim>1</dim>
				</port>
			</output>
		</layer>
		<layer id="364" name="421/fq_input_0" type="FakeQuantize" version="opset1">
			<data levels="256"/>
			<input>
				<port id="0">
					<dim>1</dim>
					<dim>192</dim>
					<dim>88</dim>
					<dim>88</dim>
				</port>
				<port id="1">
					<dim>1</dim>
					<dim>192</dim>
					<dim>1</dim>
					<dim>1</dim>
				</port>
				<port id="2">
					<dim>1</dim>
					<dim>192</dim>
					<dim>1</dim>
					<dim>1</dim>
				</port>
				<port id="3">
					<dim>1</dim>
					<dim>192</dim>
					<dim>1</dim>
					<dim>1</dim>
				</port>
				<port id="4">
					<dim>1</dim>
					<dim>192</dim>
					<dim>1</dim>
					<dim>1</dim>
				</port>
			</input>
			<output>
				<port id="5" precision="FP16">
					<dim>1</dim>
					<dim>192</dim>
					<dim>88</dim>
					<dim>88</dim>
				</port>
			</output>
		</layer>
		<layer id="365" name="421/fq_weights_1/Convert_to_float/Cast_019640_const" type="Const" version="opset1">
			<data element_type="u8" offset="75386" shape="192,1,3,3" size="1728"/>
			<output>
				<port id="1" precision="U8">
					<dim>192</dim>
					<dim>1</dim>
					<dim>3</dim>
					<dim>3</dim>
				</port>
			</output>
		</layer>
		<layer id="366" name="421/fq_weights_1/Convert_to_float" type="Convert" version="opset1">
			<data destination_type="f16"/>
			<input>
				<port id="0">
					<dim>192</dim>
					<dim>1</dim>
					<dim>3</dim>
					<dim>3</dim>
				</port>
			</input>
			<output>
				<port id="1" precision="FP16">
					<dim>192</dim>
					<dim>1</dim>
					<dim>3</dim>
					<dim>3</dim>
				</port>
			</output>
		</layer>
		<layer id="367" name="421/fq_weights_1/Copy/out_low17176_const" type="Const" version="opset1">
			<data element_type="f16" offset="0" shape="1" size="2"/>
			<output>
				<port id="1" precision="FP16">
					<dim>1</dim>
				</port>
			</output>
		</layer>
		<layer id="368" name="421/fq_weights_1/Copy/out_high17177_const" type="Const" version="opset1">
			<data element_type="f16" offset="868" shape="1" size="2"/>
			<output>
				<port id="1" precision="FP16">
					<dim>1</dim>
				</port>
			</output>
		</layer>
		<layer id="369" name="74807484_const" type="Const" version="opset1">
			<data element_type="f16" offset="77114" shape="192,1,1,1" size="384"/>
			<output>
				<port id="1" precision="FP16">
					<dim>192</dim>
					<dim>1</dim>
					<dim>1</dim>
					<dim>1</dim>
				</port>
			</output>
		</layer>
		<layer id="370" name="74817485_const" type="Const" version="opset1">
			<data element_type="f16" offset="77498" shape="192,1,1,1" size="384"/>
			<output>
				<port id="1" precision="FP16">
					<dim>192</dim>
					<dim>1</dim>
					<dim>1</dim>
					<dim>1</dim>
				</port>
			</output>
		</layer>
		<layer id="371" name="421/fq_weights_1" type="FakeQuantize" version="opset1">
			<data levels="255"/>
			<input>
				<port id="0">
					<dim>192</dim>
					<dim>1</dim>
					<dim>3</dim>
					<dim>3</dim>
				</port>
				<port id="1">
					<dim>1</dim>
				</port>
				<port id="2">
					<dim>1</dim>
				</port>
				<port id="3">
					<dim>192</dim>
					<dim>1</dim>
					<dim>1</dim>
					<dim>1</dim>
				</port>
				<port id="4">
					<dim>192</dim>
					<dim>1</dim>
					<dim>1</dim>
					<dim>1</dim>
				</port>
			</input>
			<output>
				<port id="5" precision="FP16">
					<dim>192</dim>
					<dim>1</dim>
					<dim>3</dim>
					<dim>3</dim>
				</port>
			</output>
		</layer>
		<layer id="372" name="21807/value21809_const" type="Const" version="opset1">
			<data element_type="i64" offset="42810" shape="5" size="40"/>
			<output>
				<port id="1" precision="I64">
					<dim>5</dim>
				</port>
			</output>
		</layer>
		<layer id="373" name="21807" type="Reshape" version="opset1">
			<data special_zero="True"/>
			<input>
				<port id="0">
					<dim>192</dim>
					<dim>1</dim>
					<dim>3</dim>
					<dim>3</dim>
				</port>
				<port id="1">
					<dim>5</dim>
				</port>
			</input>
			<output>
				<port id="2" precision="FP16">
					<dim>192</dim>
					<dim>1</dim>
					<dim>1</dim>
					<dim>3</dim>
					<dim>3</dim>
				</port>
			</output>
		</layer>
		<layer id="374" name="421" type="GroupConvolution" version="opset1">
			<data dilations="1,1" output_padding="0,0" pads_begin="1,1" pads_end="1,1" strides="2,2"/>
			<input>
				<port id="0">
					<dim>1</dim>
					<dim>192</dim>
					<dim>88</dim>
					<dim>88</dim>
				</port>
				<port id="1">
					<dim>192</dim>
					<dim>1</dim>
					<dim>1</dim>
					<dim>3</dim>
					<dim>3</dim>
				</port>
			</input>
			<output>
				<port id="2" precision="FP16">
					<dim>1</dim>
					<dim>192</dim>
					<dim>44</dim>
					<dim>44</dim>
				</port>
			</output>
		</layer>
		<layer id="375" name="data_add_299752998031085/EltwiseUnsqueeze31785_const1837_const" type="Const" version="opset1">
			<data element_type="f16" offset="77882" shape="1,192,1,1" size="384"/>
			<output>
				<port id="1" precision="FP16">
					<dim>1</dim>
					<dim>192</dim>
					<dim>1</dim>
					<dim>1</dim>
				</port>
			</output>
		</layer>
		<layer id="376" name="422/variance/Fused_Add_" type="Add" version="opset1">
			<input>
				<port id="0">
					<dim>1</dim>
					<dim>192</dim>
					<dim>44</dim>
					<dim>44</dim>
				</port>
				<port id="1">
					<dim>1</dim>
					<dim>192</dim>
					<dim>1</dim>
					<dim>1</dim>
				</port>
			</input>
			<output>
				<port id="2" precision="FP16">
					<dim>1</dim>
					<dim>192</dim>
					<dim>44</dim>
					<dim>44</dim>
				</port>
			</output>
		</layer>
		<layer id="377" name="423" type="Clamp" version="opset1">
			<data max="6.0" min="0.0"/>
			<input>
				<port id="0">
					<dim>1</dim>
					<dim>192</dim>
					<dim>44</dim>
					<dim>44</dim>
				</port>
			</input>
			<output>
				<port id="1" precision="FP16">
					<dim>1</dim>
					<dim>192</dim>
					<dim>44</dim>
					<dim>44</dim>
				</port>
			</output>
		</layer>
		<layer id="378" name="84288432_const" type="Const" version="opset1">
			<data element_type="f16" offset="0" shape="" size="2"/>
			<output>
				<port id="1" precision="FP16"/>
			</output>
		</layer>
		<layer id="379" name="84298433_const" type="Const" version="opset1">
			<data element_type="f16" offset="78266" shape="" size="2"/>
			<output>
				<port id="1" precision="FP16"/>
			</output>
		</layer>
		<layer id="380" name="84308434_const" type="Const" version="opset1">
			<data element_type="f16" offset="0" shape="" size="2"/>
			<output>
				<port id="1" precision="FP16"/>
			</output>
		</layer>
		<layer id="381" name="84318435_const" type="Const" version="opset1">
			<data element_type="f16" offset="78266" shape="" size="2"/>
			<output>
				<port id="1" precision="FP16"/>
			</output>
		</layer>
		<layer id="382" name="424/fq_input_0" type="FakeQuantize" version="opset1">
			<data levels="256"/>
			<input>
				<port id="0">
					<dim>1</dim>
					<dim>192</dim>
					<dim>44</dim>
					<dim>44</dim>
				</port>
				<port id="1"/>
				<port id="2"/>
				<port id="3"/>
				<port id="4"/>
			</input>
			<output>
				<port id="5" precision="FP16">
					<dim>1</dim>
					<dim>192</dim>
					<dim>44</dim>
					<dim>44</dim>
				</port>
			</output>
		</layer>
		<layer id="383" name="424/fq_weights_1/Convert_to_float/Cast_019690_const" type="Const" version="opset1">
			<data element_type="u8" offset="78268" shape="64,192,1,1" size="12288"/>
			<output>
				<port id="1" precision="U8">
					<dim>64</dim>
					<dim>192</dim>
					<dim>1</dim>
					<dim>1</dim>
				</port>
			</output>
		</layer>
		<layer id="384" name="424/fq_weights_1/Convert_to_float" type="Convert" version="opset1">
			<data destination_type="f16"/>
			<input>
				<port id="0">
					<dim>64</dim>
					<dim>192</dim>
					<dim>1</dim>
					<dim>1</dim>
				</port>
			</input>
			<output>
				<port id="1" precision="FP16">
					<dim>64</dim>
					<dim>192</dim>
					<dim>1</dim>
					<dim>1</dim>
				</port>
			</output>
		</layer>
		<layer id="385" name="424/fq_weights_1/Copy/out_low16744_const" type="Const" version="opset1">
			<data element_type="f16" offset="0" shape="1" size="2"/>
			<output>
				<port id="1" precision="FP16">
					<dim>1</dim>
				</port>
			</output>
		</layer>
		<layer id="386" name="424/fq_weights_1/Copy/out_high16745_const" type="Const" version="opset1">
			<data element_type="f16" offset="868" shape="1" size="2"/>
			<output>
				<port id="1" precision="FP16">
					<dim>1</dim>
				</port>
			</output>
		</layer>
		<layer id="387" name="84408444_const" type="Const" version="opset1">
			<data element_type="f16" offset="90556" shape="64,1,1,1" size="128"/>
			<output>
				<port id="1" precision="FP16">
					<dim>64</dim>
					<dim>1</dim>
					<dim>1</dim>
					<dim>1</dim>
				</port>
			</output>
		</layer>
		<layer id="388" name="84418445_const" type="Const" version="opset1">
			<data element_type="f16" offset="90684" shape="64,1,1,1" size="128"/>
			<output>
				<port id="1" precision="FP16">
					<dim>64</dim>
					<dim>1</dim>
					<dim>1</dim>
					<dim>1</dim>
				</port>
			</output>
		</layer>
		<layer id="389" name="424/fq_weights_1" type="FakeQuantize" version="opset1">
			<data levels="255"/>
			<input>
				<port id="0">
					<dim>64</dim>
					<dim>192</dim>
					<dim>1</dim>
					<dim>1</dim>
				</port>
				<port id="1">
					<dim>1</dim>
				</port>
				<port id="2">
					<dim>1</dim>
				</port>
				<port id="3">
					<dim>64</dim>
					<dim>1</dim>
					<dim>1</dim>
					<dim>1</dim>
				</port>
				<port id="4">
					<dim>64</dim>
					<dim>1</dim>
					<dim>1</dim>
					<dim>1</dim>
				</port>
			</input>
			<output>
				<port id="5" precision="FP16">
					<dim>64</dim>
					<dim>192</dim>
					<dim>1</dim>
					<dim>1</dim>
				</port>
			</output>
		</layer>
		<layer id="390" name="424" type="Convolution" version="opset1">
			<data dilations="1,1" output_padding="0,0" pads_begin="0,0" pads_end="0,0" strides="1,1"/>
			<input>
				<port id="0">
					<dim>1</dim>
					<dim>192</dim>
					<dim>44</dim>
					<dim>44</dim>
				</port>
				<port id="1">
					<dim>64</dim>
					<dim>192</dim>
					<dim>1</dim>
					<dim>1</dim>
				</port>
			</input>
			<output>
				<port id="2" precision="FP16">
					<dim>1</dim>
					<dim>64</dim>
					<dim>44</dim>
					<dim>44</dim>
				</port>
			</output>
		</layer>
		<layer id="391" name="data_add_299832998831087/EltwiseUnsqueeze31793_const1842_const" type="Const" version="opset1">
			<data element_type="f16" offset="90812" shape="1,64,1,1" size="128"/>
			<output>
				<port id="1" precision="FP16">
					<dim>1</dim>
					<dim>64</dim>
					<dim>1</dim>
					<dim>1</dim>
				</port>
			</output>
		</layer>
		<layer id="392" name="425/variance/Fused_Add_" type="Add" version="opset1">
			<input>
				<port id="0">
					<dim>1</dim>
					<dim>64</dim>
					<dim>44</dim>
					<dim>44</dim>
				</port>
				<port id="1">
					<dim>1</dim>
					<dim>64</dim>
					<dim>1</dim>
					<dim>1</dim>
				</port>
			</input>
			<output>
				<port id="2" precision="FP16">
					<dim>1</dim>
					<dim>64</dim>
					<dim>44</dim>
					<dim>44</dim>
				</port>
			</output>
		</layer>
		<layer id="393" name="62986302_const" type="Const" version="opset1">
			<data element_type="f16" offset="90940" shape="" size="2"/>
			<output>
				<port id="1" precision="FP16"/>
			</output>
		</layer>
		<layer id="394" name="62996303_const" type="Const" version="opset1">
			<data element_type="f16" offset="90942" shape="" size="2"/>
			<output>
				<port id="1" precision="FP16"/>
			</output>
		</layer>
		<layer id="395" name="63006304_const" type="Const" version="opset1">
			<data element_type="f16" offset="90940" shape="" size="2"/>
			<output>
				<port id="1" precision="FP16"/>
			</output>
		</layer>
		<layer id="396" name="63016305_const" type="Const" version="opset1">
			<data element_type="f16" offset="90942" shape="" size="2"/>
			<output>
				<port id="1" precision="FP16"/>
			</output>
		</layer>
		<layer id="397" name="426/fq_input_0" type="FakeQuantize" version="opset1">
			<data levels="256"/>
			<input>
				<port id="0">
					<dim>1</dim>
					<dim>64</dim>
					<dim>44</dim>
					<dim>44</dim>
				</port>
				<port id="1"/>
				<port id="2"/>
				<port id="3"/>
				<port id="4"/>
			</input>
			<output>
				<port id="5" precision="FP16">
					<dim>1</dim>
					<dim>64</dim>
					<dim>44</dim>
					<dim>44</dim>
				</port>
			</output>
		</layer>
		<layer id="398" name="426/fq_weights_1/Convert_to_float/Cast_019652_const" type="Const" version="opset1">
			<data element_type="u8" offset="90944" shape="384,64,1,1" size="24576"/>
			<output>
				<port id="1" precision="U8">
					<dim>384</dim>
					<dim>64</dim>
					<dim>1</dim>
					<dim>1</dim>
				</port>
			</output>
		</layer>
		<layer id="399" name="426/fq_weights_1/Convert_to_float" type="Convert" version="opset1">
			<data destination_type="f16"/>
			<input>
				<port id="0">
					<dim>384</dim>
					<dim>64</dim>
					<dim>1</dim>
					<dim>1</dim>
				</port>
			</input>
			<output>
				<port id="1" precision="FP16">
					<dim>384</dim>
					<dim>64</dim>
					<dim>1</dim>
					<dim>1</dim>
				</port>
			</output>
		</layer>
		<layer id="400" name="426/fq_weights_1/Copy/out_low16984_const" type="Const" version="opset1">
			<data element_type="f16" offset="0" shape="1" size="2"/>
			<output>
				<port id="1" precision="FP16">
					<dim>1</dim>
				</port>
			</output>
		</layer>
		<layer id="401" name="426/fq_weights_1/Copy/out_high16985_const" type="Const" version="opset1">
			<data element_type="f16" offset="868" shape="1" size="2"/>
			<output>
				<port id="1" precision="FP16">
					<dim>1</dim>
				</port>
			</output>
		</layer>
		<layer id="402" name="63106314_const" type="Const" version="opset1">
			<data element_type="f16" offset="115520" shape="384,1,1,1" size="768"/>
			<output>
				<port id="1" precision="FP16">
					<dim>384</dim>
					<dim>1</dim>
					<dim>1</dim>
					<dim>1</dim>
				</port>
			</output>
		</layer>
		<layer id="403" name="63116315_const" type="Const" version="opset1">
			<data element_type="f16" offset="116288" shape="384,1,1,1" size="768"/>
			<output>
				<port id="1" precision="FP16">
					<dim>384</dim>
					<dim>1</dim>
					<dim>1</dim>
					<dim>1</dim>
				</port>
			</output>
		</layer>
		<layer id="404" name="426/fq_weights_1" type="FakeQuantize" version="opset1">
			<data levels="255"/>
			<input>
				<port id="0">
					<dim>384</dim>
					<dim>64</dim>
					<dim>1</dim>
					<dim>1</dim>
				</port>
				<port id="1">
					<dim>1</dim>
				</port>
				<port id="2">
					<dim>1</dim>
				</port>
				<port id="3">
					<dim>384</dim>
					<dim>1</dim>
					<dim>1</dim>
					<dim>1</dim>
				</port>
				<port id="4">
					<dim>384</dim>
					<dim>1</dim>
					<dim>1</dim>
					<dim>1</dim>
				</port>
			</input>
			<output>
				<port id="5" precision="FP16">
					<dim>384</dim>
					<dim>64</dim>
					<dim>1</dim>
					<dim>1</dim>
				</port>
			</output>
		</layer>
		<layer id="405" name="426" type="Convolution" version="opset1">
			<data dilations="1,1" output_padding="0,0" pads_begin="0,0" pads_end="0,0" strides="1,1"/>
			<input>
				<port id="0">
					<dim>1</dim>
					<dim>64</dim>
					<dim>44</dim>
					<dim>44</dim>
				</port>
				<port id="1">
					<dim>384</dim>
					<dim>64</dim>
					<dim>1</dim>
					<dim>1</dim>
				</port>
			</input>
			<output>
				<port id="2" precision="FP16">
					<dim>1</dim>
					<dim>384</dim>
					<dim>44</dim>
					<dim>44</dim>
				</port>
			</output>
		</layer>
		<layer id="406" name="data_add_299912999631089/EltwiseUnsqueeze31801_const1846_const" type="Const" version="opset1">
			<data element_type="f16" offset="117056" shape="1,384,1,1" size="768"/>
			<output>
				<port id="1" precision="FP16">
					<dim>1</dim>
					<dim>384</dim>
					<dim>1</dim>
					<dim>1</dim>
				</port>
			</output>
		</layer>
		<layer id="407" name="427/variance/Fused_Add_" type="Add" version="opset1">
			<input>
				<port id="0">
					<dim>1</dim>
					<dim>384</dim>
					<dim>44</dim>
					<dim>44</dim>
				</port>
				<port id="1">
					<dim>1</dim>
					<dim>384</dim>
					<dim>1</dim>
					<dim>1</dim>
				</port>
			</input>
			<output>
				<port id="2" precision="FP16">
					<dim>1</dim>
					<dim>384</dim>
					<dim>44</dim>
					<dim>44</dim>
				</port>
			</output>
		</layer>
		<layer id="408" name="428" type="Clamp" version="opset1">
			<data max="6.0" min="0.0"/>
			<input>
				<port id="0">
					<dim>1</dim>
					<dim>384</dim>
					<dim>44</dim>
					<dim>44</dim>
				</port>
			</input>
			<output>
				<port id="1" precision="FP16">
					<dim>1</dim>
					<dim>384</dim>
					<dim>44</dim>
					<dim>44</dim>
				</port>
			</output>
		</layer>
		<layer id="409" name="73387342_const" type="Const" version="opset1">
			<data element_type="f16" offset="117824" shape="1,384,1,1" size="768"/>
			<output>
				<port id="1" precision="FP16">
					<dim>1</dim>
					<dim>384</dim>
					<dim>1</dim>
					<dim>1</dim>
				</port>
			</output>
		</layer>
		<layer id="410" name="73397343_const" type="Const" version="opset1">
			<data element_type="f16" offset="118592" shape="1,384,1,1" size="768"/>
			<output>
				<port id="1" precision="FP16">
					<dim>1</dim>
					<dim>384</dim>
					<dim>1</dim>
					<dim>1</dim>
				</port>
			</output>
		</layer>
		<layer id="411" name="73407344_const" type="Const" version="opset1">
			<data element_type="f16" offset="117824" shape="1,384,1,1" size="768"/>
			<output>
				<port id="1" precision="FP16">
					<dim>1</dim>
					<dim>384</dim>
					<dim>1</dim>
					<dim>1</dim>
				</port>
			</output>
		</layer>
		<layer id="412" name="73417345_const" type="Const" version="opset1">
			<data element_type="f16" offset="118592" shape="1,384,1,1" size="768"/>
			<output>
				<port id="1" precision="FP16">
					<dim>1</dim>
					<dim>384</dim>
					<dim>1</dim>
					<dim>1</dim>
				</port>
			</output>
		</layer>
		<layer id="413" name="429/fq_input_0" type="FakeQuantize" version="opset1">
			<data levels="256"/>
			<input>
				<port id="0">
					<dim>1</dim>
					<dim>384</dim>
					<dim>44</dim>
					<dim>44</dim>
				</port>
				<port id="1">
					<dim>1</dim>
					<dim>384</dim>
					<dim>1</dim>
					<dim>1</dim>
				</port>
				<port id="2">
					<dim>1</dim>
					<dim>384</dim>
					<dim>1</dim>
					<dim>1</dim>
				</port>
				<port id="3">
					<dim>1</dim>
					<dim>384</dim>
					<dim>1</dim>
					<dim>1</dim>
				</port>
				<port id="4">
					<dim>1</dim>
					<dim>384</dim>
					<dim>1</dim>
					<dim>1</dim>
				</port>
			</input>
			<output>
				<port id="5" precision="FP16">
					<dim>1</dim>
					<dim>384</dim>
					<dim>44</dim>
					<dim>44</dim>
				</port>
			</output>
		</layer>
		<layer id="414" name="429/fq_weights_1/Convert_to_float/Cast_019252_const" type="Const" version="opset1">
			<data element_type="u8" offset="119360" shape="384,1,3,3" size="3456"/>
			<output>
				<port id="1" precision="U8">
					<dim>384</dim>
					<dim>1</dim>
					<dim>3</dim>
					<dim>3</dim>
				</port>
			</output>
		</layer>
		<layer id="415" name="429/fq_weights_1/Convert_to_float" type="Convert" version="opset1">
			<data destination_type="f16"/>
			<input>
				<port id="0">
					<dim>384</dim>
					<dim>1</dim>
					<dim>3</dim>
					<dim>3</dim>
				</port>
			</input>
			<output>
				<port id="1" precision="FP16">
					<dim>384</dim>
					<dim>1</dim>
					<dim>3</dim>
					<dim>3</dim>
				</port>
			</output>
		</layer>
		<layer id="416" name="429/fq_weights_1/Copy/out_low17272_const" type="Const" version="opset1">
			<data element_type="f16" offset="0" shape="1" size="2"/>
			<output>
				<port id="1" precision="FP16">
					<dim>1</dim>
				</port>
			</output>
		</layer>
		<layer id="417" name="429/fq_weights_1/Copy/out_high17273_const" type="Const" version="opset1">
…
		<edge from-layer="2735" from-port="2" to-layer="2736" to-port="1"/>
		<edge from-layer="2736" from-port="2" to-layer="2738" to-port="0"/>
		<edge from-layer="2737" from-port="1" to-layer="2738" to-port="1"/>
		<edge from-layer="1738" from-port="3" to-layer="2739" to-port="0"/>
		<edge from-layer="2739" from-port="1" to-layer="2740" to-port="0"/>
		<edge from-layer="2738" from-port="2" to-layer="2742" to-port="0"/>
		<edge from-layer="2740" from-port="1" to-layer="2742" to-port="1"/>
		<edge from-layer="2741" from-port="1" to-layer="2742" to-port="2"/>
		<edge from-layer="2742" from-port="3" to-layer="2745" to-port="0"/>
		<edge from-layer="2743" from-port="1" to-layer="2745" to-port="1"/>
		<edge from-layer="2744" from-port="1" to-layer="2745" to-port="2"/>
		<edge from-layer="2746" from-port="1" to-layer="2747" to-port="0"/>
		<edge from-layer="2747" from-port="1" to-layer="2752" to-port="0"/>
		<edge from-layer="2748" from-port="1" to-layer="2752" to-port="1"/>
		<edge from-layer="2749" from-port="1" to-layer="2752" to-port="2"/>
		<edge from-layer="2750" from-port="1" to-layer="2752" to-port="3"/>
		<edge from-layer="2751" from-port="1" to-layer="2752" to-port="4"/>
		<edge from-layer="1567" from-port="5" to-layer="2753" to-port="0"/>
		<edge from-layer="2752" from-port="5" to-layer="2753" to-port="1"/>
		<edge from-layer="2753" from-port="2" to-layer="2755" to-port="0"/>
		<edge from-layer="2754" from-port="1" to-layer="2755" to-port="1"/>
		<edge from-layer="2755" from-port="2" to-layer="2760" to-port="0"/>
		<edge from-layer="2756" from-port="1" to-layer="2760" to-port="1"/>
		<edge from-layer="2757" from-port="1" to-layer="2760" to-port="2"/>
		<edge from-layer="2758" from-port="1" to-layer="2760" to-port="3"/>
		<edge from-layer="2759" from-port="1" to-layer="2760" to-port="4"/>
		<edge from-layer="2760" from-port="5" to-layer="2761" to-port="0"/>
		<edge from-layer="2761" from-port="1" to-layer="2763" to-port="0"/>
		<edge from-layer="2762" from-port="1" to-layer="2763" to-port="1"/>
		<edge from-layer="2763" from-port="2" to-layer="2765" to-port="0"/>
		<edge from-layer="2764" from-port="1" to-layer="2765" to-port="1"/>
		<edge from-layer="2765" from-port="2" to-layer="2766" to-port="0"/>
		<edge from-layer="2766" from-port="1" to-layer="2771" to-port="0"/>
		<edge from-layer="2767" from-port="1" to-layer="2771" to-port="1"/>
		<edge from-layer="2768" from-port="1" to-layer="2771" to-port="2"/>
		<edge from-layer="2769" from-port="1" to-layer="2771" to-port="3"/>
		<edge from-layer="2770" from-port="1" to-layer="2771" to-port="4"/>
		<edge from-layer="2772" from-port="1" to-layer="2773" to-port="0"/>
		<edge from-layer="2773" from-port="1" to-layer="2778" to-port="0"/>
		<edge from-layer="2774" from-port="1" to-layer="2778" to-port="1"/>
		<edge from-layer="2775" from-port="1" to-layer="2778" to-port="2"/>
		<edge from-layer="2776" from-port="1" to-layer="2778" to-port="3"/>
		<edge from-layer="2777" from-port="1" to-layer="2778" to-port="4"/>
		<edge from-layer="2771" from-port="5" to-layer="2779" to-port="0"/>
		<edge from-layer="2778" from-port="5" to-layer="2779" to-port="1"/>
		<edge from-layer="2779" from-port="2" to-layer="2781" to-port="0"/>
		<edge from-layer="2780" from-port="1" to-layer="2781" to-port="1"/>
		<edge from-layer="2781" from-port="2" to-layer="2786" to-port="0"/>
		<edge from-layer="2782" from-port="1" to-layer="2786" to-port="1"/>
		<edge from-layer="2783" from-port="1" to-layer="2786" to-port="2"/>
		<edge from-layer="2784" from-port="1" to-layer="2786" to-port="3"/>
		<edge from-layer="2785" from-port="1" to-layer="2786" to-port="4"/>
		<edge from-layer="2786" from-port="5" to-layer="2787" to-port="0"/>
		<edge from-layer="2787" from-port="1" to-layer="2789" to-port="0"/>
		<edge from-layer="2788" from-port="1" to-layer="2789" to-port="1"/>
		<edge from-layer="2789" from-port="2" to-layer="2791" to-port="0"/>
		<edge from-layer="2790" from-port="1" to-layer="2791" to-port="1"/>
		<edge from-layer="2791" from-port="2" to-layer="2792" to-port="0"/>
		<edge from-layer="2792" from-port="1" to-layer="2797" to-port="0"/>
		<edge from-layer="2793" from-port="1" to-layer="2797" to-port="1"/>
		<edge from-layer="2794" from-port="1" to-layer="2797" to-port="2"/>
		<edge from-layer="2795" from-port="1" to-layer="2797" to-port="3"/>
		<edge from-layer="2796" from-port="1" to-layer="2797" to-port="4"/>
		<edge from-layer="2798" from-port="1" to-layer="2799" to-port="0"/>
		<edge from-layer="2799" from-port="1" to-layer="2804" to-port="0"/>
		<edge from-layer="2800" from-port="1" to-layer="2804" to-port="1"/>
		<edge from-layer="2801" from-port="1" to-layer="2804" to-port="2"/>
		<edge from-layer="2802" from-port="1" to-layer="2804" to-port="3"/>
		<edge from-layer="2803" from-port="1" to-layer="2804" to-port="4"/>
		<edge from-layer="2797" from-port="5" to-layer="2805" to-port="0"/>
		<edge from-layer="2804" from-port="5" to-layer="2805" to-port="1"/>
		<edge from-layer="2805" from-port="2" to-layer="2807" to-port="0"/>
		<edge from-layer="2806" from-port="1" to-layer="2807" to-port="1"/>
		<edge from-layer="2807" from-port="2" to-layer="2812" to-port="0"/>
		<edge from-layer="2808" from-port="1" to-layer="2812" to-port="1"/>
		<edge from-layer="2809" from-port="1" to-layer="2812" to-port="2"/>
		<edge from-layer="2810" from-port="1" to-layer="2812" to-port="3"/>
		<edge from-layer="2811" from-port="1" to-layer="2812" to-port="4"/>
		<edge from-layer="2812" from-port="5" to-layer="2813" to-port="0"/>
		<edge from-layer="2813" from-port="1" to-layer="2815" to-port="0"/>
		<edge from-layer="2814" from-port="1" to-layer="2815" to-port="1"/>
		<edge from-layer="2815" from-port="2" to-layer="2817" to-port="0"/>
		<edge from-layer="2816" from-port="1" to-layer="2817" to-port="1"/>
		<edge from-layer="2817" from-port="2" to-layer="2818" to-port="0"/>
		<edge from-layer="2818" from-port="1" to-layer="2823" to-port="0"/>
		<edge from-layer="2819" from-port="1" to-layer="2823" to-port="1"/>
		<edge from-layer="2820" from-port="1" to-layer="2823" to-port="2"/>
		<edge from-layer="2821" from-port="1" to-layer="2823" to-port="3"/>
		<edge from-layer="2822" from-port="1" to-layer="2823" to-port="4"/>
		<edge from-layer="2824" from-port="1" to-layer="2825" to-port="0"/>
		<edge from-layer="2825" from-port="1" to-layer="2830" to-port="0"/>
		<edge from-layer="2826" from-port="1" to-layer="2830" to-port="1"/>
		<edge from-layer="2827" from-port="1" to-layer="2830" to-port="2"/>
		<edge from-layer="2828" from-port="1" to-layer="2830" to-port="3"/>
		<edge from-layer="2829" from-port="1" to-layer="2830" to-port="4"/>
		<edge from-layer="2823" from-port="5" to-layer="2831" to-port="0"/>
		<edge from-layer="2830" from-port="5" to-layer="2831" to-port="1"/>
		<edge from-layer="2831" from-port="2" to-layer="2833" to-port="0"/>
		<edge from-layer="2832" from-port="1" to-layer="2833" to-port="1"/>
		<edge from-layer="2833" from-port="2" to-layer="2838" to-port="0"/>
		<edge from-layer="2834" from-port="1" to-layer="2838" to-port="1"/>
		<edge from-layer="2835" from-port="1" to-layer="2838" to-port="2"/>
		<edge from-layer="2836" from-port="1" to-layer="2838" to-port="3"/>
		<edge from-layer="2837" from-port="1" to-layer="2838" to-port="4"/>
		<edge from-layer="2838" from-port="5" to-layer="2839" to-port="0"/>
		<edge from-layer="2839" from-port="1" to-layer="2841" to-port="0"/>
		<edge from-layer="2840" from-port="1" to-layer="2841" to-port="1"/>
		<edge from-layer="2841" from-port="2" to-layer="2843" to-port="0"/>
		<edge from-layer="2842" from-port="1" to-layer="2843" to-port="1"/>
		<edge from-layer="2843" from-port="2" to-layer="2844" to-port="0"/>
		<edge from-layer="2844" from-port="1" to-layer="2849" to-port="0"/>
		<edge from-layer="2845" from-port="1" to-layer="2849" to-port="1"/>
		<edge from-layer="2846" from-port="1" to-layer="2849" to-port="2"/>
		<edge from-layer="2847" from-port="1" to-layer="2849" to-port="3"/>
		<edge from-layer="2848" from-port="1" to-layer="2849" to-port="4"/>
		<edge from-layer="2850" from-port="1" to-layer="2851" to-port="0"/>
		<edge from-layer="2851" from-port="1" to-layer="2856" to-port="0"/>
		<edge from-layer="2852" from-port="1" to-layer="2856" to-port="1"/>
		<edge from-layer="2853" from-port="1" to-layer="2856" to-port="2"/>
		<edge from-layer="2854" from-port="1" to-layer="2856" to-port="3"/>
		<edge from-layer="2855" from-port="1" to-layer="2856" to-port="4"/>
		<edge from-layer="2849" from-port="5" to-layer="2857" to-port="0"/>
		<edge from-layer="2856" from-port="5" to-layer="2857" to-port="1"/>
		<edge from-layer="2857" from-port="2" to-layer="2859" to-port="0"/>
		<edge from-layer="2858" from-port="1" to-layer="2859" to-port="1"/>
		<edge from-layer="2859" from-port="2" to-layer="2860" to-port="0"/>
		<edge from-layer="2860" from-port="1" to-layer="2863" to-port="0"/>
		<edge from-layer="2861" from-port="1" to-layer="2863" to-port="1"/>
		<edge from-layer="2862" from-port="1" to-layer="2863" to-port="2"/>
		<edge from-layer="2863" from-port="3" to-layer="2865" to-port="0"/>
		<edge from-layer="2864" from-port="1" to-layer="2865" to-port="1"/>
		<edge from-layer="2865" from-port="2" to-layer="2867" to-port="0"/>
		<edge from-layer="2866" from-port="1" to-layer="2867" to-port="1"/>
		<edge from-layer="2739" from-port="1" to-layer="2868" to-port="0"/>
		<edge from-layer="2867" from-port="2" to-layer="2870" to-port="0"/>
		<edge from-layer="2868" from-port="1" to-layer="2870" to-port="1"/>
		<edge from-layer="2869" from-port="1" to-layer="2870" to-port="2"/>
		<edge from-layer="2870" from-port="3" to-layer="2873" to-port="0"/>
		<edge from-layer="2871" from-port="1" to-layer="2873" to-port="1"/>
		<edge from-layer="2872" from-port="1" to-layer="2873" to-port="2"/>
		<edge from-layer="2745" from-port="3" to-layer="2874" to-port="0"/>
		<edge from-layer="2873" from-port="3" to-layer="2874" to-port="1"/>
		<edge from-layer="2874" from-port="2" to-layer="2875" to-port="0"/>
		<edge from-layer="2875" from-port="1" to-layer="2877" to-port="0"/>
		<edge from-layer="2876" from-port="1" to-layer="2877" to-port="1"/>
		<edge from-layer="2742" from-port="3" to-layer="2880" to-port="0"/>
		<edge from-layer="2878" from-port="1" to-layer="2880" to-port="1"/>
		<edge from-layer="2879" from-port="1" to-layer="2880" to-port="2"/>
		<edge from-layer="2870" from-port="3" to-layer="2883" to-port="0"/>
		<edge from-layer="2881" from-port="1" to-layer="2883" to-port="1"/>
		<edge from-layer="2882" from-port="1" to-layer="2883" to-port="2"/>
		<edge from-layer="2880" from-port="3" to-layer="2884" to-port="0"/>
		<edge from-layer="2883" from-port="3" to-layer="2884" to-port="1"/>
		<edge from-layer="2884" from-port="2" to-layer="2885" to-port="0"/>
		<edge from-layer="2885" from-port="1" to-layer="2887" to-port="0"/>
		<edge from-layer="2886" from-port="1" to-layer="2887" to-port="1"/>
		<edge from-layer="2742" from-port="3" to-layer="2890" to-port="0"/>
		<edge from-layer="2888" from-port="1" to-layer="2890" to-port="1"/>
		<edge from-layer="2889" from-port="1" to-layer="2890" to-port="2"/>
		<edge from-layer="2870" from-port="3" to-layer="2893" to-port="0"/>
		<edge from-layer="2891" from-port="1" to-layer="2893" to-port="1"/>
		<edge from-layer="2892" from-port="1" to-layer="2893" to-port="2"/>
		<edge from-layer="2890" from-port="3" to-layer="2894" to-port="0"/>
		<edge from-layer="2893" from-port="3" to-layer="2894" to-port="1"/>
		<edge from-layer="2894" from-port="2" to-layer="2895" to-port="0"/>
		<edge from-layer="2895" from-port="1" to-layer="2897" to-port="0"/>
		<edge from-layer="2896" from-port="1" to-layer="2897" to-port="1"/>
		<edge from-layer="2742" from-port="3" to-layer="2900" to-port="0"/>
		<edge from-layer="2898" from-port="1" to-layer="2900" to-port="1"/>
		<edge from-layer="2899" from-port="1" to-layer="2900" to-port="2"/>
		<edge from-layer="2870" from-port="3" to-layer="2903" to-port="0"/>
		<edge from-layer="2901" from-port="1" to-layer="2903" to-port="1"/>
		<edge from-layer="2902" from-port="1" to-layer="2903" to-port="2"/>
		<edge from-layer="2900" from-port="3" to-layer="2904" to-port="0"/>
		<edge from-layer="2903" from-port="3" to-layer="2904" to-port="1"/>
		<edge from-layer="2904" from-port="2" to-layer="2905" to-port="0"/>
		<edge from-layer="2905" from-port="1" to-layer="2907" to-port="0"/>
		<edge from-layer="2906" from-port="1" to-layer="2907" to-port="1"/>
		<edge from-layer="2877" from-port="2" to-layer="2908" to-port="0"/>
		<edge from-layer="2887" from-port="2" to-layer="2908" to-port="1"/>
		<edge from-layer="2897" from-port="2" to-layer="2908" to-port="2"/>
		<edge from-layer="2907" from-port="2" to-layer="2908" to-port="3"/>
		<edge from-layer="1874" from-port="2" to-layer="2910" to-port="0"/>
		<edge from-layer="2910" from-port="1" to-layer="2913" to-port="0"/>
		<edge from-layer="2911" from-port="1" to-layer="2913" to-port="1"/>
		<edge from-layer="2912" from-port="1" to-layer="2913" to-port="2"/>
		<edge from-layer="2913" from-port="3" to-layer="2915" to-port="0"/>
		<edge from-layer="2914" from-port="1" to-layer="2915" to-port="1"/>
		<edge from-layer="2915" from-port="2" to-layer="2917" to-port="0"/>
		<edge from-layer="2916" from-port="1" to-layer="2917" to-port="1"/>
		<edge from-layer="2917" from-port="2" to-layer="2919" to-port="0"/>
		<edge from-layer="2918" from-port="1" to-layer="2919" to-port="1"/>
		<edge from-layer="2919" from-port="2" to-layer="2921" to-port="0"/>
		<edge from-layer="2920" from-port="1" to-layer="2921" to-port="1"/>
		<edge from-layer="2909" from-port="1" to-layer="2922" to-port="0"/>
		<edge from-layer="2921" from-port="2" to-layer="2922" to-port="1"/>
		<edge from-layer="2922" from-port="2" to-layer="2923" to-port="0"/>
		<edge from-layer="2923" from-port="1" to-layer="2925" to-port="0"/>
		<edge from-layer="2924" from-port="1" to-layer="2925" to-port="1"/>
		<edge from-layer="2925" from-port="2" to-layer="2927" to-port="0"/>
		<edge from-layer="2926" from-port="1" to-layer="2927" to-port="1"/>
		<edge from-layer="2927" from-port="2" to-layer="2929" to-port="0"/>
		<edge from-layer="2928" from-port="1" to-layer="2929" to-port="1"/>
		<edge from-layer="2929" from-port="2" to-layer="2931" to-port="0"/>
		<edge from-layer="2930" from-port="1" to-layer="2931" to-port="1"/>
		<edge from-layer="2931" from-port="2" to-layer="2932" to-port="0"/>
		<edge from-layer="2932" from-port="1" to-layer="2934" to-port="0"/>
		<edge from-layer="2933" from-port="1" to-layer="2934" to-port="1"/>
		<edge from-layer="2934" from-port="2" to-layer="2936" to-port="0"/>
		<edge from-layer="2935" from-port="1" to-layer="2937" to-port="0"/>
		<edge from-layer="2936" from-port="1" to-layer="2937" to-port="1"/>
		<edge from-layer="2934" from-port="2" to-layer="2938" to-port="0"/>
		<edge from-layer="2937" from-port="2" to-layer="2938" to-port="1"/>
		<edge from-layer="1874" from-port="2" to-layer="2940" to-port="0"/>
		<edge from-layer="2940" from-port="1" to-layer="2943" to-port="0"/>
		<edge from-layer="2941" from-port="1" to-layer="2943" to-port="1"/>
		<edge from-layer="2942" from-port="1" to-layer="2943" to-port="2"/>
		<edge from-layer="2943" from-port="3" to-layer="2945" to-port="0"/>
		<edge from-layer="2944" from-port="1" to-layer="2945" to-port="1"/>
		<edge from-layer="2945" from-port="2" to-layer="2947" to-port="0"/>
		<edge from-layer="2946" from-port="1" to-layer="2947" to-port="1"/>
		<edge from-layer="2947" from-port="2" to-layer="2949" to-port="0"/>
		<edge from-layer="2948" from-port="1" to-layer="2949" to-port="1"/>
		<edge from-layer="2949" from-port="2" to-layer="2951" to-port="0"/>
		<edge from-layer="2950" from-port="1" to-layer="2951" to-port="1"/>
		<edge from-layer="2939" from-port="1" to-layer="2952" to-port="0"/>
		<edge from-layer="2951" from-port="2" to-layer="2952" to-port="1"/>
		<edge from-layer="2952" from-port="2" to-layer="2953" to-port="0"/>
		<edge from-layer="2953" from-port="1" to-layer="2955" to-port="0"/>
		<edge from-layer="2954" from-port="1" to-layer="2955" to-port="1"/>
		<edge from-layer="2955" from-port="2" to-layer="2957" to-port="0"/>
		<edge from-layer="2956" from-port="1" to-layer="2957" to-port="1"/>
		<edge from-layer="2957" from-port="2" to-layer="2959" to-port="0"/>
		<edge from-layer="2958" from-port="1" to-layer="2959" to-port="1"/>
		<edge from-layer="2959" from-port="2" to-layer="2961" to-port="0"/>
		<edge from-layer="2960" from-port="1" to-layer="2961" to-port="1"/>
		<edge from-layer="2961" from-port="2" to-layer="2962" to-port="0"/>
		<edge from-layer="2962" from-port="1" to-layer="2964" to-port="0"/>
		<edge from-layer="2963" from-port="1" to-layer="2964" to-port="1"/>
		<edge from-layer="2964" from-port="2" to-layer="2965" to-port="0"/>
		<edge from-layer="2965" from-port="1" to-layer="2966" to-port="0"/>
		<edge from-layer="2936" from-port="1" to-layer="2966" to-port="1"/>
		<edge from-layer="2938" from-port="2" to-layer="2967" to-port="0"/>
		<edge from-layer="2966" from-port="2" to-layer="2967" to-port="1"/>
		<edge from-layer="2967" from-port="2" to-layer="2969" to-port="0"/>
		<edge from-layer="2968" from-port="1" to-layer="2969" to-port="1"/>
		<edge from-layer="2969" from-port="2" to-layer="2971" to-port="0"/>
		<edge from-layer="2970" from-port="1" to-layer="2971" to-port="1"/>
		<edge from-layer="2965" from-port="1" to-layer="2973" to-port="0"/>
		<edge from-layer="2972" from-port="1" to-layer="2973" to-port="1"/>
		<edge from-layer="2964" from-port="2" to-layer="2974" to-port="0"/>
		<edge from-layer="2973" from-port="2" to-layer="2974" to-port="1"/>
		<edge from-layer="2974" from-port="2" to-layer="2975" to-port="0"/>
		<edge from-layer="2966" from-port="2" to-layer="2975" to-port="1"/>
		<edge from-layer="2975" from-port="2" to-layer="2977" to-port="0"/>
		<edge from-layer="2976" from-port="1" to-layer="2977" to-port="1"/>
		<edge from-layer="2977" from-port="2" to-layer="2979" to-port="0"/>
		<edge from-layer="2978" from-port="1" to-layer="2979" to-port="1"/>
		<edge from-layer="2971" from-port="2" to-layer="2980" to-port="0"/>
		<edge from-layer="2979" from-port="2" to-layer="2980" to-port="1"/>
		<edge from-layer="2980" from-port="2" to-layer="2982" to-port="0"/>
		<edge from-layer="2981" from-port="1" to-layer="2982" to-port="1"/>
		<edge from-layer="1931" from-port="3" to-layer="2983" to-port="0"/>
		<edge from-layer="2983" from-port="1" to-layer="2984" to-port="0"/>
		<edge from-layer="2982" from-port="2" to-layer="2986" to-port="0"/>
		<edge from-layer="2984" from-port="1" to-layer="2986" to-port="1"/>
		<edge from-layer="2985" from-port="1" to-layer="2986" to-port="2"/>
		<edge from-layer="2986" from-port="3" to-layer="2989" to-port="0"/>
		<edge from-layer="2987" from-port="1" to-layer="2989" to-port="1"/>
		<edge from-layer="2988" from-port="1" to-layer="2989" to-port="2"/>
		<edge from-layer="2990" from-port="1" to-layer="2991" to-port="0"/>
		<edge from-layer="2991" from-port="1" to-layer="2996" to-port="0"/>
		<edge from-layer="2992" from-port="1" to-layer="2996" to-port="1"/>
		<edge from-layer="2993" from-port="1" to-layer="2996" to-port="2"/>
		<edge from-layer="2994" from-port="1" to-layer="2996" to-port="3"/>
		<edge from-layer="2995" from-port="1" to-layer="2996" to-port="4"/>
		<edge from-layer="1760" from-port="5" to-layer="2997" to-port="0"/>
		<edge from-layer="2996" from-port="5" to-layer="2997" to-port="1"/>
		<edge from-layer="2997" from-port="2" to-layer="2999" to-port="0"/>
		<edge from-layer="2998" from-port="1" to-layer="2999" to-port="1"/>
		<edge from-layer="2999" from-port="2" to-layer="3004" to-port="0"/>
		<edge from-layer="3000" from-port="1" to-layer="3004" to-port="1"/>
		<edge from-layer="3001" from-port="1" to-layer="3004" to-port="2"/>
		<edge from-layer="3002" from-port="1" to-layer="3004" to-port="3"/>
		<edge from-layer="3003" from-port="1" to-layer="3004" to-port="4"/>
		<edge from-layer="3004" from-port="5" to-layer="3005" to-port="0"/>
		<edge from-layer="3005" from-port="1" to-layer="3007" to-port="0"/>
		<edge from-layer="3006" from-port="1" to-layer="3007" to-port="1"/>
		<edge from-layer="3007" from-port="2" to-layer="3009" to-port="0"/>
		<edge from-layer="3008" from-port="1" to-layer="3009" to-port="1"/>
		<edge from-layer="3009" from-port="2" to-layer="3010" to-port="0"/>
		<edge from-layer="3010" from-port="1" to-layer="3015" to-port="0"/>
		<edge from-layer="3011" from-port="1" to-layer="3015" to-port="1"/>
		<edge from-layer="3012" from-port="1" to-layer="3015" to-port="2"/>
		<edge from-layer="3013" from-port="1" to-layer="3015" to-port="3"/>
		<edge from-layer="3014" from-port="1" to-layer="3015" to-port="4"/>
		<edge from-layer="3016" from-port="1" to-layer="3017" to-port="0"/>
		<edge from-layer="3017" from-port="1" to-layer="3022" to-port="0"/>
		<edge from-layer="3018" from-port="1" to-layer="3022" to-port="1"/>
		<edge from-layer="3019" from-port="1" to-layer="3022" to-port="2"/>
		<edge from-layer="3020" from-port="1" to-layer="3022" to-port="3"/>
		<edge from-layer="3021" from-port="1" to-layer="3022" to-port="4"/>
		<edge from-layer="3015" from-port="5" to-layer="3023" to-port="0"/>
		<edge from-layer="3022" from-port="5" to-layer="3023" to-port="1"/>
		<edge from-layer="3023" from-port="2" to-layer="3025" to-port="0"/>
		<edge from-layer="3024" from-port="1" to-layer="3025" to-port="1"/>
		<edge from-layer="3025" from-port="2" to-layer="3030" to-port="0"/>
		<edge from-layer="3026" from-port="1" to-layer="3030" to-port="1"/>
		<edge from-layer="3027" from-port="1" to-layer="3030" to-port="2"/>
		<edge from-layer="3028" from-port="1" to-layer="3030" to-port="3"/>
		<edge from-layer="3029" from-port="1" to-layer="3030" to-port="4"/>
		<edge from-layer="3030" from-port="5" to-layer="3031" to-port="0"/>
		<edge from-layer="3031" from-port="1" to-layer="3033" to-port="0"/>
		<edge from-layer="3032" from-port="1" to-layer="3033" to-port="1"/>
		<edge from-layer="3033" from-port="2" to-layer="3035" to-port="0"/>
		<edge from-layer="3034" from-port="1" to-layer="3035" to-port="1"/>
		<edge from-layer="3035" from-port="2" to-layer="3036" to-port="0"/>
		<edge from-layer="3036" from-port="1" to-layer="3041" to-port="0"/>
		<edge from-layer="3037" from-port="1" to-layer="3041" to-port="1"/>
		<edge from-layer="3038" from-port="1" to-layer="3041" to-port="2"/>
		<edge from-layer="3039" from-port="1" to-layer="3041" to-port="3"/>
		<edge from-layer="3040" from-port="1" to-layer="3041" to-port="4"/>
		<edge from-layer="3042" from-port="1" to-layer="3043" to-port="0"/>
		<edge from-layer="3043" from-port="1" to-layer="3048" to-port="0"/>
		<edge from-layer="3044" from-port="1" to-layer="3048" to-port="1"/>
		<edge from-layer="3045" from-port="1" to-layer="3048" to-port="2"/>
		<edge from-layer="3046" from-port="1" to-layer="3048" to-port="3"/>
		<edge from-layer="3047" from-port="1" to-layer="3048" to-port="4"/>
		<edge from-layer="3041" from-port="5" to-layer="3049" to-port="0"/>
		<edge from-layer="3048" from-port="5" to-layer="3049" to-port="1"/>
		<edge from-layer="3049" from-port="2" to-layer="3051" to-port="0"/>
		<edge from-layer="3050" from-port="1" to-layer="3051" to-port="1"/>
		<edge from-layer="3051" from-port="2" to-layer="3056" to-port="0"/>
		<edge from-layer="3052" from-port="1" to-layer="3056" to-port="1"/>
		<edge from-layer="3053" from-port="1" to-layer="3056" to-port="2"/>
		<edge from-layer="3054" from-port="1" to-layer="3056" to-port="3"/>
		<edge from-layer="3055" from-port="1" to-layer="3056" to-port="4"/>
		<edge from-layer="3056" from-port="5" to-layer="3057" to-port="0"/>
		<edge from-layer="3057" from-port="1" to-layer="3059" to-port="0"/>
		<edge from-layer="3058" from-port="1" to-layer="3059" to-port="1"/>
		<edge from-layer="3059" from-port="2" to-layer="3061" to-port="0"/>
		<edge from-layer="3060" from-port="1" to-layer="3061" to-port="1"/>
		<edge from-layer="3061" from-port="2" to-layer="3062" to-port="0"/>
		<edge from-layer="3062" from-port="1" to-layer="3067" to-port="0"/>
		<edge from-layer="3063" from-port="1" to-layer="3067" to-port="1"/>
		<edge from-layer="3064" from-port="1" to-layer="3067" to-port="2"/>
		<edge from-layer="3065" from-port="1" to-layer="3067" to-port="3"/>
		<edge from-layer="3066" from-port="1" to-layer="3067" to-port="4"/>
		<edge from-layer="3068" from-port="1" to-layer="3069" to-port="0"/>
		<edge from-layer="3069" from-port="1" to-layer="3074" to-port="0"/>
		<edge from-layer="3070" from-port="1" to-layer="3074" to-port="1"/>
		<edge from-layer="3071" from-port="1" to-layer="3074" to-port="2"/>
		<edge from-layer="3072" from-port="1" to-layer="3074" to-port="3"/>
		<edge from-layer="3073" from-port="1" to-layer="3074" to-port="4"/>
		<edge from-layer="3067" from-port="5" to-layer="3075" to-port="0"/>
		<edge from-layer="3074" from-port="5" to-layer="3075" to-port="1"/>
		<edge from-layer="3075" from-port="2" to-layer="3077" to-port="0"/>
		<edge from-layer="3076" from-port="1" to-layer="3077" to-port="1"/>
		<edge from-layer="3077" from-port="2" to-layer="3082" to-port="0"/>
		<edge from-layer="3078" from-port="1" to-layer="3082" to-port="1"/>
		<edge from-layer="3079" from-port="1" to-layer="3082" to-port="2"/>
		<edge from-layer="3080" from-port="1" to-layer="3082" to-port="3"/>
		<edge from-layer="3081" from-port="1" to-layer="3082" to-port="4"/>
		<edge from-layer="3082" from-port="5" to-layer="3083" to-port="0"/>
		<edge from-layer="3083" from-port="1" to-layer="3085" to-port="0"/>
		<edge from-layer="3084" from-port="1" to-layer="3085" to-port="1"/>
		<edge from-layer="3085" from-port="2" to-layer="3087" to-port="0"/>
		<edge from-layer="3086" from-port="1" to-layer="3087" to-port="1"/>
		<edge from-layer="3087" from-port="2" to-layer="3088" to-port="0"/>
		<edge from-layer="3088" from-port="1" to-layer="3093" to-port="0"/>
		<edge from-layer="3089" from-port="1" to-layer="3093" to-port="1"/>
		<edge from-layer="3090" from-port="1" to-layer="3093" to-port="2"/>
		<edge from-layer="3091" from-port="1" to-layer="3093" to-port="3"/>
		<edge from-layer="3092" from-port="1" to-layer="3093" to-port="4"/>
		<edge from-layer="3094" from-port="1" to-layer="3095" to-port="0"/>
		<edge from-layer="3095" from-port="1" to-layer="3100" to-port="0"/>
		<edge from-layer="3096" from-port="1" to-layer="3100" to-port="1"/>
		<edge from-layer="3097" from-port="1" to-layer="3100" to-port="2"/>
		<edge from-layer="3098" from-port="1" to-layer="3100" to-port="3"/>
		<edge from-layer="3099" from-port="1" to-layer="3100" to-port="4"/>
		<edge from-layer="3093" from-port="5" to-layer="3101" to-port="0"/>
		<edge from-layer="3100" from-port="5" to-layer="3101" to-port="1"/>
		<edge from-layer="3101" from-port="2" to-layer="3103" to-port="0"/>
		<edge from-layer="3102" from-port="1" to-layer="3103" to-port="1"/>
		<edge from-layer="3103" from-port="2" to-layer="3104" to-port="0"/>
		<edge from-layer="3104" from-port="1" to-layer="3107" to-port="0"/>
		<edge from-layer="3105" from-port="1" to-layer="3107" to-port="1"/>
		<edge from-layer="3106" from-port="1" to-layer="3107" to-port="2"/>
		<edge from-layer="3107" from-port="3" to-layer="3109" to-port="0"/>
		<edge from-layer="3108" from-port="1" to-layer="3109" to-port="1"/>
		<edge from-layer="3109" from-port="2" to-layer="3111" to-port="0"/>
		<edge from-layer="3110" from-port="1" to-layer="3111" to-port="1"/>
		<edge from-layer="2983" from-port="1" to-layer="3112" to-port="0"/>
		<edge from-layer="3111" from-port="2" to-layer="3114" to-port="0"/>
		<edge from-layer="3112" from-port="1" to-layer="3114" to-port="1"/>
		<edge from-layer="3113" from-port="1" to-layer="3114" to-port="2"/>
		<edge from-layer="3114" from-port="3" to-layer="3117" to-port="0"/>
		<edge from-layer="3115" from-port="1" to-layer="3117" to-port="1"/>
		<edge from-layer="3116" from-port="1" to-layer="3117" to-port="2"/>
		<edge from-layer="2989" from-port="3" to-layer="3118" to-port="0"/>
		<edge from-layer="3117" from-port="3" to-layer="3118" to-port="1"/>
		<edge from-layer="3118" from-port="2" to-layer="3119" to-port="0"/>
		<edge from-layer="3119" from-port="1" to-layer="3121" to-port="0"/>
		<edge from-layer="3120" from-port="1" to-layer="3121" to-port="1"/>
		<edge from-layer="2986" from-port="3" to-layer="3124" to-port="0"/>
		<edge from-layer="3122" from-port="1" to-layer="3124" to-port="1"/>
		<edge from-layer="3123" from-port="1" to-layer="3124" to-port="2"/>
		<edge from-layer="3114" from-port="3" to-layer="3127" to-port="0"/>
		<edge from-layer="3125" from-port="1" to-layer="3127" to-port="1"/>
		<edge from-layer="3126" from-port="1" to-layer="3127" to-port="2"/>
		<edge from-layer="3124" from-port="3" to-layer="3128" to-port="0"/>
		<edge from-layer="3127" from-port="3" to-layer="3128" to-port="1"/>
		<edge from-layer="3128" from-port="2" to-layer="3129" to-port="0"/>
		<edge from-layer="3129" from-port="1" to-layer="3131" to-port="0"/>
		<edge from-layer="3130" from-port="1" to-layer="3131" to-port="1"/>
		<edge from-layer="2986" from-port="3" to-layer="3134" to-port="0"/>
		<edge from-layer="3132" from-port="1" to-layer="3134" to-port="1"/>
		<edge from-layer="3133" from-port="1" to-layer="3134" to-port="2"/>
		<edge from-layer="3114" from-port="3" to-layer="3137" to-port="0"/>
		<edge from-layer="3135" from-port="1" to-layer="3137" to-port="1"/>
		<edge from-layer="3136" from-port="1" to-layer="3137" to-port="2"/>
		<edge from-layer="3134" from-port="3" to-layer="3138" to-port="0"/>
		<edge from-layer="3137" from-port="3" to-layer="3138" to-port="1"/>
		<edge from-layer="3138" from-port="2" to-layer="3139" to-port="0"/>
		<edge from-layer="3139" from-port="1" to-layer="3141" to-port="0"/>
		<edge from-layer="3140" from-port="1" to-layer="3141" to-port="1"/>
		<edge from-layer="2986" from-port="3" to-layer="3144" to-port="0"/>
		<edge from-layer="3142" from-port="1" to-layer="3144" to-port="1"/>
		<edge from-layer="3143" from-port="1" to-layer="3144" to-port="2"/>
		<edge from-layer="3114" from-port="3" to-layer="3147" to-port="0"/>
		<edge from-layer="3145" from-port="1" to-layer="3147" to-port="1"/>
		<edge from-layer="3146" from-port="1" to-layer="3147" to-port="2"/>
		<edge from-layer="3144" from-port="3" to-layer="3148" to-port="0"/>
		<edge from-layer="3147" from-port="3" to-layer="3148" to-port="1"/>
		<edge from-layer="3148" from-port="2" to-layer="3149" to-port="0"/>
		<edge from-layer="3149" from-port="1" to-layer="3151" to-port="0"/>
		<edge from-layer="3150" from-port="1" to-layer="3151" to-port="1"/>
		<edge from-layer="3121" from-port="2" to-layer="3152" to-port="0"/>
		<edge from-layer="3131" from-port="2" to-layer="3152" to-port="1"/>
		<edge from-layer="3141" from-port="2" to-layer="3152" to-port="2"/>
		<edge from-layer="3151" from-port="2" to-layer="3152" to-port="3"/>
		<edge from-layer="2176" from-port="4" to-layer="3153" to-port="0"/>
		<edge from-layer="2420" from-port="4" to-layer="3153" to-port="1"/>
		<edge from-layer="2664" from-port="4" to-layer="3153" to-port="2"/>
		<edge from-layer="2908" from-port="4" to-layer="3153" to-port="3"/>
		<edge from-layer="3152" from-port="4" to-layer="3153" to-port="4"/>
		<edge from-layer="3153" from-port="5" to-layer="3155" to-port="0"/>
		<edge from-layer="3154" from-port="1" to-layer="3155" to-port="1"/>
		<edge from-layer="3155" from-port="2" to-layer="3157" to-port="0"/>
		<edge from-layer="3156" from-port="1" to-layer="3157" to-port="1"/>
		<edge from-layer="3157" from-port="2" to-layer="3159" to-port="0"/>
		<edge from-layer="3158" from-port="1" to-layer="3159" to-port="1"/>
		<edge from-layer="2007" from-port="1" to-layer="3160" to-port="0"/>
		<edge from-layer="1128" from-port="1" to-layer="3162" to-port="0"/>
		<edge from-layer="3160" from-port="1" to-layer="3162" to-port="1"/>
		<edge from-layer="3161" from-port="1" to-layer="3162" to-port="2"/>
		<edge from-layer="2251" from-port="1" to-layer="3163" to-port="0"/>
		<edge from-layer="1315" from-port="1" to-layer="3165" to-port="0"/>
		<edge from-layer="3163" from-port="1" to-layer="3165" to-port="1"/>
		<edge from-layer="3164" from-port="1" to-layer="3165" to-port="2"/>
		<edge from-layer="2495" from-port="1" to-layer="3166" to-port="0"/>
		<edge from-layer="1502" from-port="1" to-layer="3168" to-port="0"/>
		<edge from-layer="3166" from-port="1" to-layer="3168" to-port="1"/>
		<edge from-layer="3167" from-port="1" to-layer="3168" to-port="2"/>
		<edge from-layer="2739" from-port="1" to-layer="3169" to-port="0"/>
		<edge from-layer="1689" from-port="1" to-layer="3171" to-port="0"/>
		<edge from-layer="3169" from-port="1" to-layer="3171" to-port="1"/>
		<edge from-layer="3170" from-port="1" to-layer="3171" to-port="2"/>
		<edge from-layer="2983" from-port="1" to-layer="3172" to-port="0"/>
		<edge from-layer="1882" from-port="1" to-layer="3174" to-port="0"/>
		<edge from-layer="3172" from-port="1" to-layer="3174" to-port="1"/>
		<edge from-layer="3173" from-port="1" to-layer="3174" to-port="2"/>
		<edge from-layer="3162" from-port="3" to-layer="3175" to-port="0"/>
		<edge from-layer="3165" from-port="3" to-layer="3175" to-port="1"/>
		<edge from-layer="3168" from-port="3" to-layer="3175" to-port="2"/>
		<edge from-layer="3171" from-port="3" to-layer="3175" to-port="3"/>
		<edge from-layer="3174" from-port="3" to-layer="3175" to-port="4"/>
		<edge from-layer="2007" from-port="1" to-layer="3176" to-port="0"/>
		<edge from-layer="1146" from-port="1" to-layer="3178" to-port="0"/>
		<edge from-layer="3176" from-port="1" to-layer="3178" to-port="1"/>
		<edge from-layer="3177" from-port="1" to-layer="3178" to-port="2"/>
		<edge from-layer="2251" from-port="1" to-layer="3179" to-port="0"/>
		<edge from-layer="1333" from-port="1" to-layer="3181" to-port="0"/>
		<edge from-layer="3179" from-port="1" to-layer="3181" to-port="1"/>
		<edge from-layer="3180" from-port="1" to-layer="3181" to-port="2"/>
		<edge from-layer="2495" from-port="1" to-layer="3182" to-port="0"/>
		<edge from-layer="1520" from-port="1" to-layer="3184" to-port="0"/>
		<edge from-layer="3182" from-port="1" to-layer="3184" to-port="1"/>
		<edge from-layer="3183" from-port="1" to-layer="3184" to-port="2"/>
		<edge from-layer="2739" from-port="1" to-layer="3185" to-port="0"/>
		<edge from-layer="1707" from-port="1" to-layer="3187" to-port="0"/>
		<edge from-layer="3185" from-port="1" to-layer="3187" to-port="1"/>
		<edge from-layer="3186" from-port="1" to-layer="3187" to-port="2"/>
		<edge from-layer="2983" from-port="1" to-layer="3188" to-port="0"/>
		<edge from-layer="1900" from-port="1" to-layer="3190" to-port="0"/>
		<edge from-layer="3188" from-port="1" to-layer="3190" to-port="1"/>
		<edge from-layer="3189" from-port="1" to-layer="3190" to-port="2"/>
		<edge from-layer="3178" from-port="3" to-layer="3191" to-port="0"/>
		<edge from-layer="3181" from-port="3" to-layer="3191" to-port="1"/>
		<edge from-layer="3184" from-port="3" to-layer="3191" to-port="2"/>
		<edge from-layer="3187" from-port="3" to-layer="3191" to-port="3"/>
		<edge from-layer="3190" from-port="3" to-layer="3191" to-port="4"/>
		<edge from-layer="3191" from-port="5" to-layer="3192" to-port="0"/>
		<edge from-layer="3192" from-port="1" to-layer="3195" to-port="0"/>
		<edge from-layer="3193" from-port="1" to-layer="3195" to-port="1"/>
		<edge from-layer="3194" from-port="1" to-layer="3195" to-port="2"/>
		<edge from-layer="3195" from-port="3" to-layer="3197" to-port="0"/>
		<edge from-layer="3196" from-port="1" to-layer="3197" to-port="1"/>
		<edge from-layer="3197" from-port="2" to-layer="3199" to-port="0"/>
		<edge from-layer="3198" from-port="1" to-layer="3199" to-port="1"/>
		<edge from-layer="3191" from-port="5" to-layer="3200" to-port="0"/>
		<edge from-layer="3199" from-port="2" to-layer="3200" to-port="1"/>
		<edge from-layer="3175" from-port="5" to-layer="3201" to-port="0"/>
		<edge from-layer="3200" from-port="2" to-layer="3202" to-port="0"/>
		<edge from-layer="3201" from-port="1" to-layer="3202" to-port="1"/>
		<edge from-layer="3175" from-port="5" to-layer="3203" to-port="0"/>
		<edge from-layer="3202" from-port="2" to-layer="3203" to-port="1"/>
		<edge from-layer="3203" from-port="2" to-layer="3205" to-port="0"/>
		<edge from-layer="3204" from-port="1" to-layer="3205" to-port="1"/>
		<edge from-layer="3157" from-port="2" to-layer="3206" to-port="0"/>
		<edge from-layer="3206" from-port="1" to-layer="3210" to-port="0"/>
		<edge from-layer="3207" from-port="1" to-layer="3210" to-port="1"/>
		<edge from-layer="3208" from-port="1" to-layer="3210" to-port="2"/>
		<edge from-layer="3209" from-port="1" to-layer="3210" to-port="3"/>
		<edge from-layer="3157" from-port="2" to-layer="3212" to-port="0"/>
		<edge from-layer="3212" from-port="1" to-layer="3216" to-port="0"/>
		<edge from-layer="3213" from-port="1" to-layer="3216" to-port="1"/>
		<edge from-layer="3214" from-port="1" to-layer="3216" to-port="2"/>
		<edge from-layer="3215" from-port="1" to-layer="3216" to-port="3"/>
		<edge from-layer="3210" from-port="4" to-layer="3217" to-port="0"/>
		<edge from-layer="3211" from-port="1" to-layer="3217" to-port="1"/>
		<edge from-layer="3216" from-port="4" to-layer="3217" to-port="2"/>
		<edge from-layer="3205" from-port="2" to-layer="3218" to-port="0"/>
		<edge from-layer="3217" from-port="3" to-layer="3218" to-port="1"/>
		<edge from-layer="3157" from-port="2" to-layer="3222" to-port="0"/>
		<edge from-layer="3218" from-port="2" to-layer="3222" to-port="1"/>
		<edge from-layer="3219" from-port="1" to-layer="3222" to-port="2"/>
		<edge from-layer="3220" from-port="1" to-layer="3222" to-port="3"/>
		<edge from-layer="3221" from-port="1" to-layer="3222" to-port="4"/>
		<edge from-layer="3222" from-port="5" to-layer="3225" to-port="0"/>
		<edge from-layer="3223" from-port="1" to-layer="3225" to-port="1"/>
		<edge from-layer="3224" from-port="1" to-layer="3225" to-port="2"/>
		<edge from-layer="3216" from-port="4" to-layer="3227" to-port="0"/>
		<edge from-layer="3226" from-port="1" to-layer="3227" to-port="1"/>
		<edge from-layer="3225" from-port="3" to-layer="3228" to-port="0"/>
		<edge from-layer="3227" from-port="2" to-layer="3228" to-port="1"/>
		<edge from-layer="3228" from-port="2" to-layer="3229" to-port="0"/>
		<edge from-layer="3225" from-port="5" to-layer="3229" to-port="1"/>
		<edge from-layer="3229" from-port="2" to-layer="3230" to-port="0"/>
		<edge from-layer="3159" from-port="2" to-layer="3232" to-port="0"/>
		<edge from-layer="3230" from-port="1" to-layer="3232" to-port="1"/>
		<edge from-layer="3231" from-port="1" to-layer="3232" to-port="2"/>
		<edge from-layer="3232" from-port="3" to-layer="3234" to-port="0"/>
		<edge from-layer="3233" from-port="1" to-layer="3234" to-port="1"/>
		<edge from-layer="3218" from-port="2" to-layer="3236" to-port="0"/>
		<edge from-layer="3235" from-port="1" to-layer="3236" to-port="1"/>
		<edge from-layer="3218" from-port="2" to-layer="3237" to-port="0"/>
		<edge from-layer="3237" from-port="1" to-layer="3241" to-port="0"/>
		<edge from-layer="3238" from-port="1" to-layer="3241" to-port="1"/>
		<edge from-layer="3239" from-port="1" to-layer="3241" to-port="2"/>
		<edge from-layer="3240" from-port="1" to-layer="3241" to-port="3"/>
		<edge from-layer="3241" from-port="4" to-layer="3243" to-port="0"/>
		<edge from-layer="3242" from-port="1" to-layer="3243" to-port="1"/>
		<edge from-layer="3225" from-port="3" to-layer="3244" to-port="0"/>
		<edge from-layer="3243" from-port="2" to-layer="3244" to-port="1"/>
		<edge from-layer="3244" from-port="2" to-layer="3245" to-port="0"/>
		<edge from-layer="3225" from-port="4" to-layer="3245" to-port="1"/>
		<edge from-layer="3245" from-port="2" to-layer="3246" to-port="0"/>
		<edge from-layer="3227" from-port="2" to-layer="3246" to-port="1"/>
		<edge from-layer="3246" from-port="2" to-layer="3247" to-port="0"/>
		<edge from-layer="3225" from-port="5" to-layer="3247" to-port="1"/>
		<edge from-layer="3247" from-port="2" to-layer="3248" to-port="0"/>
		<edge from-layer="3236" from-port="2" to-layer="3250" to-port="0"/>
		<edge from-layer="3248" from-port="1" to-layer="3250" to-port="1"/>
		<edge from-layer="3249" from-port="1" to-layer="3250" to-port="2"/>
		<edge from-layer="3250" from-port="3" to-layer="3252" to-port="0"/>
		<edge from-layer="3251" from-port="1" to-layer="3252" to-port="1"/>
		<edge from-layer="3225" from-port="4" to-layer="3253" to-port="0"/>
		<edge from-layer="3225" from-port="3" to-layer="3253" to-port="1"/>
		<edge from-layer="3253" from-port="2" to-layer="3254" to-port="0"/>
		<edge from-layer="3254" from-port="1" to-layer="3256" to-port="0"/>
		<edge from-layer="3255" from-port="1" to-layer="3256" to-port="1"/>
		<edge from-layer="3234" from-port="2" to-layer="3257" to-port="0"/>
		<edge from-layer="3252" from-port="2" to-layer="3257" to-port="1"/>
		<edge from-layer="3256" from-port="2" to-layer="3257" to-port="2"/>
		<edge from-layer="3257" from-port="3" to-layer="3260" to-port="0"/>
		<edge from-layer="3258" from-port="1" to-layer="3260" to-port="1"/>
		<edge from-layer="3259" from-port="1" to-layer="3260" to-port="2"/>
		<edge from-layer="3260" from-port="3" to-layer="3262" to-port="0"/>
		<edge from-layer="3261" from-port="1" to-layer="3262" to-port="1"/>
		<edge from-layer="3262" from-port="2" to-layer="3264" to-port="0"/>
		<edge from-layer="3264" from-port="1" to-layer="3267" to-port="0"/>
		<edge from-layer="3265" from-port="1" to-layer="3267" to-port="1"/>
		<edge from-layer="3266" from-port="1" to-layer="3267" to-port="2"/>
		<edge from-layer="3267" from-port="3" to-layer="3269" to-port="0"/>
		<edge from-layer="3268" from-port="1" to-layer="3269" to-port="1"/>
		<edge from-layer="3263" from-port="1" to-layer="3270" to-port="0"/>
		<edge from-layer="3269" from-port="2" to-layer="3270" to-port="1"/>
		<edge from-layer="3270" from-port="2" to-layer="3271" to-port="0"/>
		<edge from-layer="3271" from-port="1" to-layer="3273" to-port="0"/>
		<edge from-layer="3273" from-port="1" to-layer="3274" to-port="0"/>
		<edge from-layer="3274" from-port="1" to-layer="3276" to-port="0"/>
		<edge from-layer="3275" from-port="1" to-layer="3276" to-port="1"/>
		<edge from-layer="3272" from-port="1" to-layer="3278" to-port="0"/>
		<edge from-layer="3276" from-port="2" to-layer="3278" to-port="1"/>
		<edge from-layer="3277" from-port="1" to-layer="3278" to-port="2"/>
		<edge from-layer="3271" from-port="1" to-layer="3279" to-port="0"/>
		<edge from-layer="3278" from-port="3" to-layer="3279" to-port="1"/>
		<edge from-layer="3279" from-port="2" to-layer="3280" to-port="0"/>
		<edge from-layer="3280" from-port="1" to-layer="3282" to-port="0"/>
		<edge from-layer="3281" from-port="1" to-layer="3282" to-port="1"/>
		<edge from-layer="3282" from-port="2" to-layer="3284" to-port="0"/>
		<edge from-layer="3283" from-port="1" to-layer="3284" to-port="1"/>
		<edge from-layer="3284" from-port="2" to-layer="3286" to-port="0"/>
		<edge from-layer="3285" from-port="1" to-layer="3286" to-port="1"/>
		<edge from-layer="3286" from-port="2" to-layer="3287" to-port="0"/>
		<edge from-layer="3262" from-port="2" to-layer="3288" to-port="0"/>
		<edge from-layer="3287" from-port="1" to-layer="3288" to-port="1"/>
		<edge from-layer="3288" from-port="2" to-layer="3289" to-port="0"/>
		<edge from-layer="3288" from-port="3" to-layer="3290" to-port="0"/>
		<edge from-layer="3290" from-port="1" to-layer="3291" to-port="0"/>
		<edge from-layer="3257" from-port="3" to-layer="3293" to-port="0"/>
		<edge from-layer="3291" from-port="1" to-layer="3293" to-port="1"/>
		<edge from-layer="3292" from-port="1" to-layer="3293" to-port="2"/>
		<edge from-layer="3293" from-port="3" to-layer="3297" to-port="0"/>
		<edge from-layer="3294" from-port="1" to-layer="3297" to-port="1"/>
		<edge from-layer="3295" from-port="1" to-layer="3297" to-port="2"/>
		<edge from-layer="3296" from-port="1" to-layer="3297" to-port="3"/>
		<edge from-layer="3297" from-port="4" to-layer="3298" to-port="0"/>
		<edge from-layer="3293" from-port="3" to-layer="3301" to-port="0"/>
		<edge from-layer="3299" from-port="1" to-layer="3301" to-port="1"/>
		<edge from-layer="3300" from-port="1" to-layer="3301" to-port="2"/>
		<edge from-layer="3301" from-port="3" to-layer="3302" to-port="0"/>
		<edge from-layer="3302" from-port="1" to-layer="3304" to-port="0"/>
		<edge from-layer="3303" from-port="1" to-layer="3304" to-port="1"/>
		<edge from-layer="3304" from-port="2" to-layer="3305" to-port="0"/>
	</edges>
	<meta_data>
		<MO_version value="unknown version"/>
		<cli_parameters>
			<caffe_parser_path value="DIR"/>
			<data_type value="FP16"/>
			<disable_nhwc_to_nchw value="False"/>
			<disable_omitting_optional value="False"/>
			<disable_resnet_optimization value="False"/>
			<disable_weights_compression value="False"/>
			<enable_concat_optimization value="False"/>
			<enable_flattening_nested_params value="False"/>
			<enable_ssd_gluoncv value="False"/>
			<extensions value="DIR"/>
			<framework value="onnx"/>
			<freeze_placeholder_with_value value="{}"/>
			<generate_deprecated_IR_V7 value="False"/>
			<input value="image"/>
			<input_model value="DIR/model.onnx"/>
			<input_model_is_text value="False"/>
			<input_shape value="[1,3,704,704]"/>
			<k value="DIR/CustomLayersMapping.xml"/>
			<keep_shape_ops value="True"/>
			<legacy_mxnet_model value="False"/>
			<log_level value="ERROR"/>
			<mean_scale_values value="{'image': {'mean': array([0., 0., 0.]), 'scale': array([255., 255., 255.])}}"/>
			<mean_values value="image[0.0,0.0,0.0]"/>
			<model_name value="horizontal-text-detection-0001"/>
			<output value="['boxes', 'labels']"/>
			<output_dir value="DIR"/>
			<placeholder_data_types value="{}"/>
			<placeholder_shapes value="{'image': array([  1,   3, 704, 704])}"/>
			<progress value="False"/>
			<remove_memory value="False"/>
			<remove_output_softmax value="False"/>
			<reverse_input_channels value="True"/>
			<save_params_from_nd value="False"/>
			<scale_values value="image[255.0,255.0,255.0]"/>
			<silent value="False"/>
			<static_shape value="False"/>
			<stream_output value="False"/>
			<unset unset_cli_parameters="batch, counts, disable_fusing, disable_gfusing, finegrain_fusing, input_checkpoint, input_meta_graph, input_proto, input_symbol, mean_file, mean_file_offsets, move_to_preprocess, nd_prefix_name, pretrained_model_name, saved_model_dir, saved_model_tags, scale, tensorboard_logdir, tensorflow_custom_layer_libraries, tensorflow_custom_operations_config_update, tensorflow_object_detection_api_pipeline_config, tensorflow_use_custom_operations_config, transformations_config"/>
		</cli_parameters>
	</meta_data>
	<quantization_parameters>
		<config>{
		'compression': {
			'algorithms': [
				{
					'name': 'DefaultQuantization',
					'params': {
						'preset': 'performance',
						'stat_subset_size': 300
					}
				}
			],
			'dump_intermediate_model': true,
			'target_device': 'CPU'
		},
		'engine': {
			'models': [
				{
					'name': 'horizontal-text-detection-0001',
					'launchers': [
						{
							'framework': 'dlsdk',
							'tags': [
								'FP32'
							],
							'model': 'PATH',
							'weights': 'PATH',
							'adapter': {
								'type': 'class_agnostic_detection',
								'scale': 0.0014204
							},
							'device': 'CPU'
						}
					],
					'datasets': [
						{
							'name': 'ICDAR2013_detection',
							'data_source': 'PATH',
							'annotation_conversion': {
								'converter': 'icdar_detection',
								'data_dir': 'PATH'
							},
							'annotation': 'icdar13_detection.pickle',
							'preprocessing': [
								{
									'type': 'resize',
									'size': 704
								}
							],
							'postprocessing': [
								{
									'type': 'resize_prediction_boxes'
								},
								{
									'type': 'cast_to_int'
								},
								{
									'type': 'filter',
									'apply_to': 'prediction',
									'min_confidence': 0.25,
									'remove_filtered': true
								},
								{
									'type': 'nms',
									'overlap': 0.5
								}
							],
							'metrics': [
								{
									'type': 'focused_text_hmean',
									'ignore_difficult': true,
									'area_recall_constrain': 0.5,
									'area_precision_constrain': 0.5
								}
							]
						}
					]
				},
				{
					'name': 'horizontal-text-detection-0001',
					'launchers': [
						{
							'framework': 'dlsdk',
							'tags': [
								'FP16'
							],
							'model': 'PATH',
							'weights': 'PATH',
							'adapter': {
								'type': 'class_agnostic_detection',
								'scale': 0.0014204
							},
							'device': 'CPU'
						}
					],
					'datasets': [
						{
							'name': 'ICDAR2013_detection',
							'data_source': 'PATH',
							'annotation_conversion': {
								'converter': 'icdar_detection',
								'data_dir': 'PATH'
							},
							'annotation': 'icdar13_detection.pickle',
							'preprocessing': [
								{
									'type': 'resize',
									'size': 704
								}
							],
							'postprocessing': [
								{
									'type': 'resize_prediction_boxes'
								},
								{
									'type': 'cast_to_int'
								},
								{
									'type': 'filter',
									'apply_to': 'prediction',
									'min_confidence': 0.25,
									'remove_filtered': true
								},
								{
									'type': 'nms',
									'overlap': 0.5
								}
							],
							'metrics': [
								{
									'type': 'focused_text_hmean',
									'ignore_difficult': true,
									'area_recall_constrain': 0.5,
									'area_precision_constrain': 0.5
								}
							]
						}
					]
				}
			],
			'global_definitions': '../dataset_definitions.yml',
			'stat_requests_number': null,
			'eval_requests_number': null,
			'type': 'accuracy_checker'
		}
	}</config>
		<version value="1.0"/>
		<cli_params value="{'evaluate': False, 'output_dir': 'PATH', 'direct_dump': True, 'log_level': 'INFO', 'pbar': False, 'stream_output': False, 'keep_uncompressed_weights': False}"/>
	</quantization_parameters>
</net>
